UnityProject/Assets/mlAgentsConfig/v3Final/ppoPathfinder.onnx (onnx, 100227 bytes, 9 tensors)

62 f4 [58]
000000 ab cc b0 3e 85 89 41 3e aa 7a 9a 3e dd ee 99 3e
       0.3453115 0.18900116 0.3017171 0.3006505
000010 58 cc 8a 3e 85 89 41 3e 52 32 4f 3e 6d 0c 4f 3e
       0.27109027 0.18900116 0.2023404 0.20219584
000020 e8 f4 b1 3e 85 89 41 3e 40 f0 9b 3e 8a 5e 9b 3e
       0.3475716 0.18900116 0.30456734 0.30345565
000030 ba 2d 8b 3e 85 89 41 3e 61 4e 50 3e a8 b1 51 3e
       0.27183324 0.18900116 0.20342399 0.20477927
000040 14 31 b1 3e 85 89 41 3e 81 f9 9a 3e 3a 6e 9a 3e
       0.34607756 0.18900116 0.3026848 0.3016222
000050 48 70 8d 3e 85 89 41 3e 4a d5 56 3e 1f e0 65 3e
       0.27624726 0.18900116 0.20979801 0.22448777
000060 0c 46 a0 3e 85 89 41 3e 92 34 85 3e 02 c7 86 3e
       0.31303442 0.18900116 0.2601667 0.26323706
000070 dd 9b bf 3e 85 89 41 3e 5f ed ac 3e db cb ac 3e
       0.37423602 0.18900116 0.3377485 0.3374928
000080 77 af bb 3e 85 89 41 3e 16 15 a8 3e 21 a8 a7 3e
       0.36657307 0.18900116 0.32828587 0.3274546
000090 d4 be ba 3e 85 89 41 3e a0 ea a6 3e 2a 67 a6 3e
       0.36473715 0.18900116 0.3260088 0.32500583
0000a0 91 42 be 3e 85 89 41 3e fe 43 ab 3e 05 be aa 3e
       0.3716016 0.18900116 0.3345031 0.33348098
0000b0 2f 9a bd 3e 85 89 41 3e b4 73 aa 3e 13 ec a9 3e
       0.37031695 0.18900116 0.332914 0.33187923
0000c0 2f 9a bd 3e 85 89 41 3e b4 73 aa 3e 13 ec a9 3e
       0.37031695 0.18900116 0.332914 0.33187923
0000d0 1f 4b 03 3f 2c 51 c2 3e 10 ed 3e 40 ab 9b dd 3f
       0.512865 0.37952554 2.9832191 1.7313131
0000e0 22 7c 4f 40 bf 8b e8 3f
       3.2419515 1.8167647

action_model._continuous_distribution.log_sigma f4 [1, 2]
000000 9e 94 0d bf 26 d3 41 bf
       -0.55304897 -0.7571281

action_model._continuous_distribution.mu.bias f4 [2]
000000 00 d5 a8 3d c3 35 0d bc
       0.082437515 -0.008618775

action_model._continuous_distribution.mu.weight f4 [2, 128]
000000 17 da a8 bc a5 15 1e ba f8 d5 c0 bd 61 bd 5b 3d
       -0.020611806 -0.0006030447 -0.09415811 0.053647403
000010 f3 6d 05 bc 75 69 45 bd 5c d2 b8 bd 62 41 89 3c
       -0.00814389 -0.048196275 -0.09024498 0.01675481
000020 69 8c b1 bd 1b 73 df bd 65 2e c0 3b 6c d3 35 3d
       -0.08669359 -0.109106265 0.0058649057 0.04439108
000030 42 64 5e 3a c8 67 21 3d 9c d8 f1 3d 67 73 37 3d
       0.00084835675 0.039405614 0.11808893 0.04478779
000040 29 a2 81 bc e1 50 64 be a0 7b 1e be 31 1f 9c bc
       -0.015824394 -0.22296478 -0.15476847 -0.019057842
000050 ad 22 0f 3c 22 8b 63 bd a4 e2 9d bd ad bf 03 be
       0.008736295 -0.05555261 -0.07709244 -0.12866087
000060 a7 97 9c bd 11 2d 1b 3d df fd b0 3c 40 05 aa 3c
       -0.07646113 0.037884776 0.02160543 0.020754457
000070 33 d3 f7 38 31 23 88 3b 0c 1f 12 be 51 0c 5e be
       0.00011817217 0.004154586 -0.14269656 -0.21684386
000080 f8 f9 44 bd cd 9b ce bc c9 2b 0b 3d c2 2d 9a 3c
       -0.04808995 -0.025220776 0.033977304 0.018820647
000090 0a df e9 3c 7b ff 04 bc 6b 44 b2 3d b8 b2 6e bd
       0.028548736 -0.008117552 0.08704456 -0.05827591
0000a0 a8 5d 9d bc 7c f6 31 be a0 c0 1c 3d ef 74 c3 bd
       -0.019209698 -0.17379183 0.03826964 -0.09543788
0000b0 1f f6 dc bc 9c 3b 57 bd bc 79 0c 3b a7 80 8b 3d
       -0.026972828 -0.052547082 0.0021434864 0.06811648
0000c0 3a b3 0e be cd e8 c7 bd dc e3 ac bc 5d 5b bb 3c
       -0.13935557 -0.097612 -0.021104746 0.022870714
0000d0 e8 fc 86 bc 61 1b e7 3a d1 a8 39 bd 26 a8 e2 bc
       -0.016478017 0.0017632061 -0.04532701 -0.02766807
0000e0 70 f3 ad 3a 1c 5b 89 3d eb 0d 73 3d 21 e2 26 be
       0.0013271403 0.06706831 0.059339445 -0.16297199
0000f0 d9 86 e6 bc 6a 45 89 3c 38 e2 7e 3a 40 f4 8c 3c
       -0.028140472 0.016756732 0.000972304 0.017206311
000100 a5 42 1e 3d f5 0d 06 bd 09 bc 8d bb 4a c9 c3 bd
       0.038637776 -0.032728154 -0.004325394 -0.09559877
000110 cc 1e 5d bc dc 77 f0 bd 0a 98 8b 3d 75 64 60 be
       -0.013496112 -0.11741611 0.068161085 -0.21913321
000120 8f 56 6d 3d 73 1c 15 be eb 68 d9 3c 38 69 0e 3c
       0.057943877 -0.14561634 0.026539287 0.008692078
000130 67 14 a0 bc 1e 63 8d bd e4 ce 67 3d 31 be 69 be
       -0.019540979 -0.06903671 0.05659379 -0.22826459
000140 18 1f 54 bd 6b 1c 43 bd f6 30 67 be ce ec 38 3d
       -0.051787466 -0.047634523 -0.22577271 0.04514771
000150 f7 1d 8a 3d 2a 53 a1 3d 86 dd 60 3d 63 05 c2 bd
       0.067439966 0.078771904 0.05489876 -0.09473684
000160 d5 09 74 3d ee 32 04 bd a5 78 7c bd ee 95 fd 3c
       0.05957969 -0.032275133 -0.061638493 0.030955281
000170 b1 84 3d b9 db cc 85 bb bb 62 5e 3d 9a 7e 9d bd
       -0.00018073876 -0.0040832586 0.054293375 -0.07690163
000180 89 21 61 3c d4 2a ff 3c e0 da 40 bd 73 5c 6d 3d
       0.013740906 0.031148352 -0.047083735 0.057949495
000190 e8 54 5f 3d e2 ce 00 bd 9c c7 4d bd 41 0c f7 39
       0.054524332 -0.0314473 -0.05023919 0.0004712064
0001a0 36 07 6f 3b 03 6c d0 3d 95 e2 4e bd fe 21 72 bb
       0.0036472804 0.101768516 -0.050509054 -0.003694653
0001b0 c9 69 02 bd 6c 29 5d 3a a9 00 3a 3b 79 b1 21 3d
       -0.031839166 0.00084366533 0.002838174 0.03947589
0001c0 34 c0 a5 3d 2a cf 8e bd cb a4 6e 3d 1f 90 cd ba
       0.080933005 -0.06973107 0.058262628 -0.001568321
0001d0 ab dc 7b bd 58 5d 84 3c 11 eb e1 3d c2 ba 76 bc
       -0.061489742 0.016157791 0.110311635 -0.015059175
0001e0 70 b8 b9 bd 4c b8 07 3d 04 d7 dc 3c cf 1f ad 3c
       -0.09068382 0.033134744 0.026957996 0.021133332
0001f0 79 a9 a6 3d 40 69 8b 3d 1d 53 48 3c 79 30 38 3a
       0.08137793 0.06807184 0.012226847 0.0007026266
000200 b5 ab a2 3b 96 40 fb ba bd 38 8b bd 8f 42 10 bd
       0.0049643167 -0.0019169028 -0.06797931 -0.035219725
000210 24 e0 d3 bd 11 40 3b 3d 00 2a 14 3c 77 a9 61 3b
       -0.10345486 0.045715395 0.009043217 0.0034433284
000220 57 bc 39 3c 21 c1 f2 bd 91 d1 b8 bd 0b f8 cd bc
       0.011336408 -0.11853243 -0.090243466 -0.02514269
000230 26 5b e1 3b 47 86 01 3b c8 90 99 3d 7e 43 59 3c
       0.006877321 0.0019763873 0.07498318 0.01326072
000240 6f 39 5d 3c cb b3 05 bd fc b4 1e be 47 42 99 3c
       0.013502463 -0.032642167 -0.15498728 0.018708361
000250 38 05 1f 3c f3 84 18 3e c9 5b ab bd 86 f8 5f bc
       0.009705834 0.14894466 -0.08367116 -0.013670092
000260 cc f3 51 bd c7 70 16 3d 4c 33 c0 3b 14 f1 5c 3c
       -0.051257893 0.036728647 0.00586549 0.013485212
000270 d3 a9 08 be c6 99 aa 3c e1 37 9f bd a9 cf 49 3d
       -0.13346033 0.020825278 -0.0777433 0.049270306
000280 55 e8 80 bc 2a 0a 02 3c a4 f8 40 bd 01 92 e9 bc
       -0.015735785 0.007936994 -0.047112122 -0.028512003
000290 ab 1c 0a bd 23 6f b8 bd 97 38 bf bd 3d 25 c5 bd
       -0.033718746 -0.09005573 -0.093369655 -0.09626243
0002a0 5f 2f 05 be 29 9a 07 be 7b f8 9a bd c3 d6 00 be
       -0.13006352 -0.13242401 -0.07566925 -0.12581925
0002b0 0b 6b dc bc e7 a8 ac bc 68 6a a4 3c 7e 9f d1 3b
       -0.02690651 -0.021076633 0.02007027 0.006397187
0002c0 fd e6 f7 3d ff 8b b8 3b fc bd 3a 3c 2b 61 09 3d
       0.121046044 0.005631923 0.011397835 0.033539932
0002d0 39 69 9c bd 81 fb 9c bb a8 03 11 3d 32 8f a9 ba
       -0.07637257 -0.004790724 0.035403877 -0.0012936352
0002e0 12 2a 01 3c 83 e1 50 bd 5d 7a 95 bd 41 eb 09 bd
       0.0078835655 -0.050996315 -0.072987296 -0.03367162
0002f0 63 34 a6 3c c3 35 0c 3e 1d bc 93 ba 04 68 a8 3d
       0.020288652 0.13692383 -0.0011271272 0.082229644
000300 17 44 82 3d c4 59 7d bd f2 bc da bd 7b 7a c1 bd
       0.06360643 -0.061853185 -0.1068057 -0.094471894
000310 32 26 48 bd ac da b4 bd 5c 79 ef bd 07 fa f9 bb
       -0.04886455 -0.08830771 -0.11693069 -0.0076286825
000320 78 d5 82 3d 49 dd 4b bd 79 5e 5b bb a5 7b 17 bc
       0.06388372 -0.04977158 -0.0033473058 -0.009245788
000330 14 b7 02 3c f9 dd dd 3c fb 89 82 bd 91 af c7 bd
       0.00797822 0.027083384 -0.06373974 -0.097502835
000340 86 e1 0b 3d 12 78 d3 3d 74 18 d9 3d b6 9f ce 3c
       0.034150623 0.10325636 0.10600367 0.02522264
000350 ab d9 07 bd ee a9 c9 bb 66 31 3f 3d 00 f4 c8 bd
       -0.03316657 -0.0061542904 0.04667797 -0.09812164
000360 a5 62 aa 3c 75 a6 76 3d d3 ae 14 3d b3 de b6 3c
       0.02079899 0.06021734 0.036299538 0.022322988
000370 5f 8e 3f 3a 4e d6 00 3d 9f ac 24 bd 06 1c 44 be
       0.0007307287 0.031454377 -0.040203687 -0.19151315
000380 f9 b5 04 3d a3 ae 01 bd a5 15 1d bd 07 08 72 3c
       0.032400105 -0.031660687 -0.03835072 0.014772422
000390 de 54 d3 bc c3 ee b4 3d 0d e2 69 3d c6 dc 3b 3d
       -0.025797304 0.08834603 0.057100344 0.045864843
0003a0 43 de fc bc 4d 30 6b 3d 13 ef a5 bc a4 58 c3 3d
       -0.030867701 0.05741911 -0.020255601 0.09538391
0003b0 1b 7b 11 3e c8 d8 80 3b 4f 5f c1 bb ae d4 29 bd
       0.14207117 0.0039320923 -0.0059012542 -0.041462593
0003c0 1e 9e 7c bc 78 2a 8c 3d 6d c3 2b 3d 54 05 8c 3b
       -0.015418557 0.06844038 0.04193442 0.004273096
0003d0 ae cd 8d bd a8 55 c1 bd b7 69 d1 bb b1 23 18 bd
       -0.06923996 -0.09440166 -0.006390776 -0.037143413
0003e0 49 90 22 bd b0 4c dd bb 6b 02 ef 3d 6f d1 6f bd
       -0.039688382 -0.0067535266 0.11670383 -0.05854934
0003f0 72 bd c6 bd 70 29 85 3c 6c ff 0d 3b 33 61 ad 3c
       -0.097041026 0.01625511 0.0021667136 0.021164512

network_body.linear_encoder.seq_layers.0.bias f4 [128]
000000 e2 94 a7 3c 37 6b fc 3c 16 2c 39 3d 56 38 fb 3d
       0.020456735 0.030812843 0.04520806 0.122666046
000010 c4 fe b6 3d 23 83 e7 3b ce 08 9b 3c 36 d3 fc bc
       0.089353114 0.0070651933 0.018925097 -0.030862432
000020 94 c7 51 3c 7b 06 ad bc ec d6 4f bc 49 22 1e bc
       0.012803931 -0.021121254 -0.012685519 -0.009651729
000030 77 2b a5 bc 93 ca 12 3d 1d 22 73 3c 27 7d 98 b9
       -0.020162327 0.03583772 0.014839676 -0.00029084945
000040 85 c4 4f 3c 63 8f 35 bc 21 43 d8 bc 68 10 4d bd
       0.012681131 -0.011081549 -0.026399197 -0.050064474
000050 81 27 0a 3d 5e 78 71 bd 54 b1 aa bc 03 af 0d 3d
       0.03372908 -0.05895268 -0.02083651 0.034590732
000060 63 d5 36 bc fc 18 c5 ba 65 35 4e 3c ad 41 19 bd
       -0.011159274 -0.0015037353 0.012585972 -0.03741615
000070 43 fa e2 bc 71 db b9 3a 8d 50 23 bc 82 bb bb 3c
       -0.027707225 0.0014179779 -0.009967935 0.02291656
000080 b0 50 df 3c c3 1d c3 bc f5 11 af 3b 1c e7 33 3c
       0.027260154 -0.023817902 0.005342717 0.010980394
000090 25 aa 42 bb 01 63 16 bd b8 3b 13 bd 5e 76 88 3c
       -0.0029703465 -0.03671551 -0.035945624 0.016658004
0000a0 1d 85 27 3d 5a 41 10 bd 28 99 c5 3c e7 dd f3 bc
       0.04089843 -0.035218574 0.024120882 -0.029768897
0000b0 03 1f 42 bd 10 19 eb 3c 9f 37 a0 bc bb 7b 24 3d
       -0.047392856 0.028698474 -0.019557772 0.04015706
0000c0 7d 74 d3 3d 2e 78 b2 bc 66 34 23 3d 7c 1c ed 3c
       0.10324953 -0.021785822 0.039844893 0.028944246
0000d0 41 4a b7 3c 8e 40 9f 3c e8 67 81 bc 7b b3 18 3c
       0.022374274 0.019439962 -0.015796617 0.009320135
0000e0 8a e4 2f 3d 0d 63 64 3c 2f 27 3a bc 6a 72 8c 3d
       0.04294256 0.013939631 -0.011361881 0.0685776
0000f0 fb e4 82 bc b0 59 10 3d 93 d3 7a 3c da 78 8f bc
       -0.015978327 0.035241783 0.015309232 -0.017513681
000100 2a 24 8c bb a8 9f c8 3c 42 48 aa bb 16 cb 5c bc
       -0.004276772 0.024490193 -0.005196602 -0.013476154
000110 bc 26 c5 3c 25 88 5b 3d 2a 15 66 3c 47 28 71 3a
       0.024066322 0.053596634 0.014043132 0.0009199422
000120 f4 d6 f0 3c 0f b4 7b 38 11 ca f5 bc 53 23 c1 3c
       0.029399373 6.0010756e-05 -0.03000358 0.023576414
000130 a1 a1 c0 bb 71 2b dc bc 68 6a 0e 3d 0c ad 94 bc
       -0.0058786427 -0.026876183 0.034769446 -0.018148921
000140 e4 1d 6e bd a3 f0 0a 3c 62 d3 ef bc 75 1b c9 3b
       -0.058133975 0.008480224 -0.0292756 0.0061373063
000150 6a 8e 0c 3d 48 5b 35 3e e8 db 52 bc 8c ec 68 bd
       0.034315504 0.17710602 -0.012869813 -0.056866214
000160 c7 d8 20 3d 74 35 26 ba 40 28 83 bc bd 34 9a bb
       0.039269235 -0.00063403626 -0.016010404 -0.004705994
000170 e3 8f 4e bb 87 ed 97 3b 08 61 eb bb d2 f2 d2 39
       -0.0031518869 0.0046364698 -0.007183198 0.00040235237
000180 ee 24 1e 3b ab a3 5c bd dd a0 c1 3c be 6a 31 bd
       0.0024130899 -0.053867023 0.023636276 -0.043314688
000190 8a 3c 3a 3c ec 26 82 3c fe 16 33 bc 34 4f 41 bd
       0.011366973 0.0158877 -0.010930775 -0.047194675
0001a0 16 ff b3 bd 31 4b a8 3c db b9 ec bc 11 84 90 bc
       -0.08788888 0.020543667 -0.028897217 -0.0176411
0001b0 a4 cc b4 bc fc e7 21 3c 60 ba c0 3c e9 5c 56 bb
       -0.022070237 0.00988197 0.02352637 -0.0032709187
0001c0 4a 6d be bc 1f ea a1 bd 40 75 48 3c da 2d 85 bc
       -0.023245472 -0.07905983 0.012234986 -0.016257215
0001d0 be 5e b8 bc 44 45 ba ba 78 ae 65 3b 4e 42 6f 3d
       -0.022506114 -0.0014211317 0.0035046618 0.058412842
0001e0 38 58 f4 3b 03 77 22 3c 4b b2 31 bb d3 62 a5 bc
       0.0074568056 0.00991607 -0.0027114328 -0.020188725
0001f0 ae fe 03 3c 59 d5 f6 3c a2 3e 8f 3c 34 ff 82 3c
       0.008056326 0.030131029 0.01748592 0.015990831

network_body.linear_encoder.seq_layers.0.weight f4 [128, 58]
000000 33 43 f4 bd 78 14 98 bd bc 9d 87 be 68 cc a6 bd
       -0.1192688 -0.07425779 -0.2648753 -0.08144456
000010 07 ae 98 3d 90 f1 e5 bd ac cc 54 be 88 49 2c bd
       0.07455068 -0.11227715 -0.20781201 -0.042062312
000020 9a 6e a7 be 1c ee 04 3e 2b 5e 79 3d 30 26 55 3e
       -0.3270157 0.12981457 0.06088082 0.20815349
000030 44 d9 f1 3d f2 61 42 be 3b 43 c1 3d d4 9d 4e bd
       0.11809018 -0.18982676 0.09436651 -0.050443485
000040 e9 34 4c 3e 1f e2 d2 bb e5 6a f7 bd 36 fc 20 be
       0.19942059 -0.006435647 -0.120809354 -0.15721211
000050 7a 1a e7 3d e2 64 91 3d d8 ae 56 bd ed 0e 2c bd
       0.11284347 0.0709932 -0.052412838 -0.04200642
000060 79 59 8e be 48 c6 dd 3d 74 14 01 bd 0f cf 6f bd
       -0.27802637 0.10828835 -0.031513646 -0.058547076
000070 0a a4 15 be e8 41 d9 3d 0a 4d 8a bd 30 f6 05 be
       -0.14613357 0.10608274 -0.06752975 -0.13082194
000080 ff 5b 8c bd 12 42 23 be b3 39 d0 3c 5d f2 ec bd
       -0.06853484 -0.15943173 0.025418138 -0.115696646
000090 5c 34 fc 3d 25 de 1e 3e 10 92 f9 3d e3 e2 dc 3c
       0.12314674 0.15514429 0.12186062 0.026963657
0000a0 19 23 51 b9 72 1b 09 be e7 13 09 3e 78 75 ba 3c
       -0.00019944868 -0.13389376 0.13386498 0.022761092
0000b0 7f ad 2b be 5e 6b 26 be 41 e4 0f 3e b0 4a 19 3e
       -0.16765402 -0.16251895 0.14051916 0.14969897
0000c0 73 23 c5 bc c8 40 e2 3d 5b 88 4c ba 92 56 1f 3d
       -0.024064755 0.11047512 -0.0007802301 0.03890092
0000d0 67 a6 13 bf 8d f3 8a be 77 f7 57 3c f8 dc 87 3e
       -0.57675785 -0.2713894 0.013181559 0.26535773
0000e0 bf 66 d1 bd 41 b0 9c bd 6f b1 15 3e d6 8b 02 3e
       -0.102246754 -0.07650805 0.14618467 0.12748656
0000f0 e3 61 19 be db f1 2f be 84 85 53 bd 5c f2 b7 bd
       -0.14978747 -0.17182104 -0.051641002 -0.08981773
000100 a5 48 80 3d a9 32 44 bc 87 86 d0 bd 5f d9 07 3e
       0.06263856 -0.011974969 -0.10181909 0.13266514
000110 36 c5 64 bd d3 a1 30 be fc c0 8e 3d 43 9e b8 3d
       -0.055852138 -0.17249231 0.069704026 0.09014561
000120 46 c0 da 3e 20 0d a6 3d 4b 4f 1f 3d 71 b9 13 bc
       0.42724818 0.08107972 0.03889398 -0.009016381
000130 b5 93 9f 3d 03 9c fe 3d d6 a8 49 3e e1 a5 9a bd
       0.07791845 0.124321006 0.19693312 -0.0755117
000140 67 a6 25 3d d8 16 07 be 5f 48 f3 bd 1e 9c 15 3e
       0.040441897 -0.13192308 -0.11879038 0.14610335
000150 7b 00 49 3d d6 77 0e be 20 34 fa 3d e3 c1 3c 3b
       0.049072724 -0.13912901 0.12216973 0.002880209
000160 db 0f dd 3d ae 31 7c 3d bf 7a 20 bd 61 bd 5d bd
       0.1079404 0.061570816 -0.03917956 -0.054135684
000170 5c 22 97 3d f1 10 f3 3b f1 3a a3 bd ff a8 82 bd
       0.073796004 0.007417791 -0.079702266 -0.0637989
000180 4b 2c c5 bc 49 28 51 bc a6 f6 68 3c 10 f0 f2 3d
       -0.024068972 -0.012765952 0.014218962 0.118621945
000190 bd d9 08 be ef 5f 09 be f2 6c 20 bd 3b c0 87 3e
       -0.1336431 -0.13415502 -0.0391664 0.26513848
0001a0 3f e3 21 3e f5 74 45 3d dd 29 c9 3c 3d 40 a7 bd
       0.15809344 0.048207242 0.024556095 -0.08166549
0001b0 0f 5a de 3d 29 7b 53 bd 47 29 84 be f4 c4 74 3c
       0.10857021 -0.051631127 -0.25812742 0.014939535
0001c0 5e f5 62 3d 29 ab ae be 59 fc 80 3e 57 0a 7c bd
       0.05540978 -0.3411496 0.25192526 -0.0615333
0001d0 5a 1d 97 3d 3e 5b 9e bd 10 8a 46 be b8 dd 98 be
       0.07378645 -0.07732247 -0.19388604 -0.29856658
0001e0 11 82 33 3e 9f 79 d9 3d 26 9c 0e bd 08 0d 74 be
       0.17530085 0.106189005 -0.034816884 -0.23833096
0001f0 a5 4d 91 3e a3 39 a6 3d 2c 39 8c bd 9a 23 f9 bb
       0.2837955 0.08116462 -0.06846842 -0.007603121
000200 89 6c 8d 3b 81 c7 40 be 1a 26 ce bd eb 1e 1a 3d
       0.004315917 -0.18826105 -0.10065861 0.037627142
000210 13 0f e5 3d 41 d4 82 3e 0c 39 f6 3d 59 53 48 be
       0.11184516 0.25552562 0.120225996 -0.19563045
000220 a7 0c 1c 3e 85 73 17 be ca 13 ca 3d a3 14 85 3c
       0.15239201 -0.14790161 0.09867056 0.016245192
000230 a0 74 6c 3e 69 54 cd 3d d3 55 68 bd dc 89 08 3e
       0.23091364 0.100258656 -0.056722473 0.13333839
000240 bc 89 84 3d 5b 61 86 bd 7c 26 85 bd 03 a9 4e be
       0.06471583 -0.06561538 -0.06501481 -0.2018166
000250 32 9f 1f bd 17 e3 9b 3c 6f 3d e5 3c 28 72 3f be
       -0.03897018 0.019029183 0.027983395 -0.18695891
000260 ca 0b 40 3e b0 9b 8e 3d 31 08 f4 bd 05 e9 61 bd
       0.18754497 0.06963289 -0.11915625 -0.055153865
000270 7c df 85 bd cc b7 4a be 8b 09 93 be 32 4f 9e be
       -0.06536767 -0.19796675 -0.28718218 -0.30919796
000280 c6 c8 6e 3d e0 c8 45 3c a5 3e 02 3d 44 c8 53 3e
       0.05829694 0.012071818 0.031798024 0.20681864
000290 86 4b b1 bd 23 54 eb 3c 76 c1 ca 3d 50 48 84 3e
       -0.08656983 0.028726643 0.09900181 0.2583642
0002a0 07 90 92 3e 16 38 b7 3c fc c9 ab 3e 3a a6 4a bd
       0.2862551 0.022365611 0.3355254 -0.049474932
0002b0 2b b1 03 bf 76 32 35 be 44 f4 a1 3e 0d c2 9c be
       -0.5144221 -0.1769503 0.31631672 -0.306168
0002c0 bf c0 95 bd ef 34 8b bd 6c 3a c7 3c e3 4a 26 3e
       -0.07312154 -0.06797206 0.02431985 0.16239505
0002d0 7d 37 d1 bd 77 55 09 be db 0b 76 3e 7d cc 6e 3e
       -0.10215662 -0.13411509 0.2402796 0.23320194
0002e0 89 94 e0 bd 61 d7 a6 3c 50 32 51 bd 80 99 d2 bd
       -0.10965831 0.020366373 -0.051073372 -0.10283184
0002f0 53 d2 ca bd 10 bc f5 3d 47 5a 40 3e db d7 b1 be
       -0.099033974 0.11998761 0.18784438 -0.34734997
000300 00 29 1f bd 91 ed be bd 2d 6e 5a 3e cc e6 3f be
       -0.03885746 -0.09322656 0.21331091 -0.18740386
000310 30 99 e3 ba 26 36 a8 3d b4 85 4a 3e ee 6c 38 be
       -0.0017364379 0.08213453 0.19777566 -0.18010303
000320 75 dd b9 3d d6 19 45 3c 13 12 ad bd cd e1 63 3d
       0.09075443 0.012030086 -0.08450713 0.055635262
000330 09 68 4a 3d e1 7f ba bc aa 0f 8d bd ae 98 3f be
       0.049415622 -0.022766056 -0.06887753 -0.18710586
000340 44 ca aa 3d 34 60 14 be 08 e8 09 3e 97 49 9a be
       0.0833936 -0.14489824 0.13467419 -0.3013427
000350 10 bc 12 be da 38 14 3d 87 f5 e7 bd e5 62 0a 3e
       -0.14329553 0.03618703 -0.113261275 0.13514288
000360 1c 0d b8 3b b7 4f 42 3d 86 d5 63 be fe a2 d3 3c
       0.005616797 0.047439303 -0.22249421 0.025834557
000370 86 7f 5c 3e 53 28 0c be df 59 07 be 66 74 14 3e
       0.21533021 -0.13687257 -0.13217877 0.14497527
000380 b9 e5 10 3e 33 da b8 3d 37 61 0f bf cb 95 c1 3e
       0.14150132 0.09025993 -0.56007713 0.37809595
000390 cb e2 f6 3c a5 5c d4 be 74 85 4f 3e 10 a4 4c be
       0.03013744 -0.41476932 0.20265752 -0.1998446
0003a0 1e bb 29 3e f1 56 5b bd c9 48 86 3e 47 e1 f7 3c
       0.16575286 -0.05354971 0.26227406 0.030258788
0003b0 e7 24 a4 bd 4d 96 4c bc aa 84 cb bd 9b 1c 56 3e
       -0.08014851 -0.012487006 -0.09937413 0.2090935
0003c0 11 0d c5 3d f1 3b d3 bc ec 55 6e bd 50 75 1b 3e
       0.09621633 -0.025785418 -0.05818741 0.1518147
0003d0 73 95 51 3e 5d b4 35 bb 9d aa 80 3c ac 44 0f bd
       0.20467167 -0.0027725913 0.015706355 -0.0349776
0003e0 2c 20 73 3e 34 70 f1 3b 4c f5 82 bd 2f 2d 55 3d
       0.23742741 0.007368112 -0.06394443 0.052045044
0003f0 71 76 8d be 7d 42 10 bd 2f d0 0c be 56 79 83 3e
       -0.27629426 -0.03521966 -0.1375129 0.2567851

network_body.linear_encoder.seq_layers.2.bias f4 [128]
000000 b4 24 93 bd 15 aa ba bc 32 9f 8c bd 32 d2 d4 3c
       -0.07184735 -0.02278618 -0.068663016 0.025979135
000010 52 f0 00 bc 15 9c 62 bd b7 f1 82 bd 18 43 9c 3b
       -0.007869797 -0.055324633 -0.0639376 0.0047687404
000020 31 ea 0e bd c1 3e d4 bc c3 3c 58 3c 23 85 d5 3c
       -0.03489131 -0.02590883 0.0131980805 0.026064461
000030 94 47 e2 bc c5 3c bc 3c 84 c2 60 3d 4c 76 24 3c
       -0.027622022 0.022978196 0.054873005 0.01003797
000040 10 a4 c0 bc 0c 1a 57 bd 44 85 b8 3c 51 f3 3d bd
       -0.023515731 -0.052515075 0.022524484 -0.046374623
000050 b7 5f 27 bc 58 73 c9 bd 50 85 18 bc 35 63 b2 bd
       -0.010215691 -0.09836453 -0.009309128 -0.087103285
000060 e8 e8 9b bd b7 1d 4f 3c 2d 41 5c 3c 20 2a 62 3c
       -0.07612783 0.012641362 0.0134432735 0.013803989
000070 6a 59 c9 3c fd af b5 bc b5 74 b8 bc ab f3 26 39
       0.024578769 -0.022178644 -0.022516588 0.00015921767
000080 9f 1c 36 bd ad 23 aa bd c7 a3 f5 3c ca b2 a4 3c
       -0.04446089 -0.08307586 0.029985322 0.020104785
000090 37 67 ea 3c 6a 9c 8c bb f6 e0 2d 3d 27 ca 17 bd
       0.02861367 -0.004291107 0.042450868 -0.037058022
0000a0 b8 55 3c bd 36 11 26 bd a6 ac 0d 3d 8e e8 53 3c
       -0.045980185 -0.040543757 0.03458848 0.012933863
0000b0 bb f9 b6 bd d8 cd 9c bd db 56 8f bc cb 9c 3d 3d
       -0.08934351 -0.07656449 -0.01749747 0.046292108
0000c0 d2 0e e4 bc 3b 12 aa bd 08 1d a8 bd 41 f8 c7 bb
       -0.027839098 -0.083042584 -0.08208662 -0.006102592
0000d0 5e c4 b4 3b b5 1c 1d bd 89 fe 85 bd b0 e9 88 bc
       0.005516573 -0.038357455 -0.06542689 -0.016712993
0000e0 9f 82 79 bd f9 9f 4d 3d d6 ca 33 3d da 26 3d bd
       -0.060915586 0.05020139 0.04389461 -0.04617963
0000f0 9f 75 44 bd 7f da 59 bd 63 2a c3 bb 96 dc 00 3c
       -0.047963735 -0.05318689 -0.0059559806 0.007865092
000100 2f fc 23 bc 41 cd 94 bd 73 87 9d 3c 0e 8b f9 bc
       -0.010008856 -0.072657116 0.019229626 -0.030461814
000110 5a 55 10 bc 85 e2 4f bd 4e 42 4d 3c 0b 9b 25 bd
       -0.008809412 -0.050753135 0.012528015 -0.040431064
000120 98 10 cc 3b 46 a9 75 bd 96 b2 23 3d cf e5 bb 3c
       0.006227564 -0.059975885 0.039965235 0.02293673
000130 dc 79 a5 bd 1b c4 20 bd 1a 65 5c 3d 97 b8 e2 bc
       -0.080798835 -0.03924952 0.053807355 -0.02767591
000140 0d aa 79 bd 6c 53 dc bc df 22 8c bc aa fc df 3c
       -0.06095319 -0.026895247 -0.017106472 0.02734216
000150 74 bc 31 3d 20 c5 b6 3c 93 0b 91 3c c9 fe eb bc
       0.043392614 0.022310793 0.017705714 -0.028808014
000160 07 8e b2 3c 36 36 24 bd b3 6b 49 bc 30 57 35 bc
       0.02179624 -0.040090762 -0.012293744 -0.01106815
000170 d3 fc f5 bc 41 fb f2 bc be 98 3e 3d 08 f3 a2 3c
       -0.030027783 -0.029660823 0.046532385 0.019891277
000180 e3 e2 91 bc 2b 2d 8f 3c b2 2e 87 bc 44 c9 65 3d
       -0.017808383 0.017477592 -0.016501758 0.056100145
000190 cc d9 6f 3d b7 d2 b1 bb e5 eb 9d bc d5 a9 75 bd
       0.058557317 -0.0054267305 -0.019277522 -0.059976418
0001a0 f3 bc 9b 3c b2 d5 f5 3c bc f8 10 bd e9 d7 2c bd
       0.019010996 0.030009124 -0.03539346 -0.042198095
0001b0 63 23 5b bd 33 be e1 bc 65 52 5a ba f5 31 82 3b
       -0.053500544 -0.027556514 -0.0008328318 0.0039732405
0001c0 f0 bb 71 3d 7c 2e 14 bd 5c a6 e9 3c dc 7f d5 bc
       0.05901712 -0.036177143 0.02852171 -0.026061945
0001d0 37 99 9a bd 69 a0 f4 3a 92 1a 60 3d 8c 6b 05 bd
       -0.07548755 0.0018663529 0.05471284 -0.032573268
0001e0 24 fe dc bb 1a 09 9c 3b aa 07 e7 bc 45 c5 b7 bb
       -0.006744163 0.004761827 -0.028201897 -0.005608233
0001f0 1b 2d dd 3b dd f1 2d 3d fb f0 ec bc dc 8b 29 bc
       0.0067497618 0.042466987 -0.028923502 -0.0103482865

network_body.linear_encoder.seq_layers.2.weight f4 [128, 128]
000000 fa b4 10 3d 93 d0 dd 3d 0e 89 24 be 38 da c9 3d
       0.035328843 0.10830798 -0.16067907 0.09856075
000010 1d 15 dc bd 47 9a 9c bd 55 6a 8c 3d 23 a5 d6 bb
       -0.107462145 -0.076466136 0.06856219 -0.0065504475
000020 2e fb d6 bd 1a 70 cb bd 69 6b fc 3c e9 1e 7f bd
       -0.104971275 -0.09933491 0.030812936 -0.062285338
000030 c5 14 2c 3d d2 3b 32 3d 30 e7 06 bd 1c fc 3e 3d
       0.042011995 0.04351408 -0.03293532 0.04662715
000040 ad b6 c1 3d 1f 21 ff bd 3a 22 37 be e8 5f 7f 3d
       0.09458671 -0.12457489 -0.1788415 0.062347323
000050 6e ed 90 bd d2 1c 76 3d 84 58 93 3d 78 32 18 3e
       -0.07076536 0.06008608 0.071946174 0.14863002
000060 79 40 2c 3c da 3a 0a be b5 a8 fe bc 4c f8 77 be
       0.010513418 -0.13499013 -0.031086305 -0.24215811
000070 14 12 d7 3b e2 c1 3f 3d 26 18 88 3c 3c 65 8e bd
       0.0065634344 0.04681576 0.016613077 -0.06952903
000080 67 b3 d9 bd c4 99 b5 3d 90 9e 1b 3e ce 2b 1c be
       -0.106299214 0.08867219 0.15197206 -0.15251085
000090 45 30 84 bd 17 ab cf 3d 16 aa ac 3d ed 86 a2 3d
       -0.06454519 0.10140055 0.08430879 0.07935891
0000a0 30 90 e4 bd 9a f4 b8 bd ad ec 27 3c 6e ab e0 bb
       -0.11160314 -0.09031029 0.010249299 -0.0068563735
0000b0 a8 26 b0 bd 60 79 b5 bd a3 86 f6 bd cc c5 02 be
       -0.08601123 -0.08861041 -0.12037399 -0.12770766
0000c0 a4 3b 64 bd 98 0b ab bd 87 bd 04 be 3a 15 28 3b
       -0.05572094 -0.08351821 -0.12962924 0.0025647418
0000d0 f1 37 e2 bc ce 36 d3 3d bc 62 f6 bc bb 61 2c be
       -0.027614566 0.103131875 -0.030076377 -0.16834156
0000e0 59 70 29 bd 17 a4 5a bc 70 e0 51 bd db cb d6 bd
       -0.04136691 -0.013344786 -0.05123943 -0.10488101
0000f0 fd 44 7f bd 8d ca 5c 3d 8d 6e 3e 3c b8 94 83 bd
       -0.06232165 0.053904105 0.011623037 -0.0642485
000100 0f 45 93 3d ef 9d f7 3c 15 0a 28 be de c5 2a be
       0.07190906 0.030226676 -0.16410096 -0.16677043
000110 60 cd 3b bd f9 9e 16 bd ec db d9 bc e8 ea 72 bd
       -0.045850158 -0.036772702 -0.026594125 -0.059306055
000120 fd 14 3b 3d a2 c2 cd bd 9a 37 88 b9 a8 5a 0d bc
       0.045674313 -0.10046889 -0.00025981368 -0.008627571
000130 52 55 c2 3d eb e5 19 bc 6f 24 e7 3c 49 8e 6e 3e
       0.0948893 -0.009393196 0.028215615 0.23296465
000140 5d 6b 18 3d b9 8e c2 bc 6a ef 11 be 4b 80 75 bd
       0.037211765 -0.023749696 -0.14251485 -0.059936803
000150 2b da 7a bb de 1d 49 3d 79 03 0a bd 8b 7e b6 3c
       -0.003827701 0.04910075 -0.033694718 0.022277137
000160 3e 18 88 bc 78 7a b0 3c 66 24 04 be 18 e2 bb 3c
       -0.016613122 0.021542773 -0.1290451 0.022934958
000170 64 01 05 3d 24 5d aa bd 3f 47 a8 3c 0e d3 cc bd
       0.03247203 -0.083185464 0.020541785 -0.10001193
000180 16 de d5 bc d7 da 22 3d 82 57 2c bc 9d c8 db 3c
       -0.026106875 0.039759483 -0.01051891 0.026829058
000190 2c b9 8b bb c3 8b 30 bd d4 fd 28 3d d2 41 05 3d
       -0.0042640176 -0.043102037 0.041257694 0.032533474
0001a0 a4 b4 79 3c 04 96 0b bd 70 db be 3d 3b 02 1c bd
       0.015240822 -0.034078613 0.09319198 -0.038088065
0001b0 dc 3a 1d be d9 0a 42 3d 00 8b 02 3c 64 57 ba bd
       -0.15354484 0.047373626 0.0079677105 -0.090987
0001c0 eb b1 90 3d 03 27 ea bc 41 1d de 3d a1 3d 0d bd
       0.07065185 -0.028583055 0.108454235 -0.034482602
0001d0 a4 56 a4 bd 38 8a ac 3d af ac ab 3c dd c3 a2 bd
       -0.08024338 0.08424801 0.020956365 -0.07947514
0001e0 ab 71 1a bc 7a 14 0e 3c ca eb af bd 00 a6 9f bd
       -0.009426515 0.008671874 -0.08589895 -0.07795334
0001f0 54 aa 84 3d 8c b2 cf bd 06 ee 19 3d 3c 75 f3 3d
       0.064778 -0.10141477 0.037580512 0.11887595
000200 4a fd a4 bd b0 6b ec bc 6c be 72 bd f6 59 93 bb
       -0.080561236 -0.028859943 -0.05926363 -0.004496808
000210 24 87 37 be 6f 6b 3e bd 3e 3f 92 3c 8a 65 c3 3d
       -0.17922646 -0.046489175 0.017852422 0.095408514
000220 44 fe 92 bd af 09 85 bd 6a d9 7f 3c 5e 9b 03 3e
       -0.071774036 -0.064959876 0.0156158 0.12852237
000230 18 04 69 3c 51 e1 48 3c 0c f0 8e 3d 6f 25 a6 3d
       0.014222167 0.012260751 0.06979379 0.08112609
000240 71 85 59 be 69 95 cf bd af 6f 21 be b2 06 dc bd
       -0.2124231 -0.101359196 -0.1576526 -0.107434645
000250 ac 1e f6 bc 06 dc 40 bc 57 d1 72 be bd 27 2a bd
       -0.030043922 -0.011771208 -0.2371267 -0.041541804
000260 53 ef 1a 3d c7 70 b3 3c a5 4e b4 bc e4 12 92 bd
       0.037825894 0.021904362 -0.022010157 -0.07132509
000270 d3 6f 02 bd c6 d1 48 bd 0d 9e a3 bd 6f 3d 1a 3e
       -0.031844925 -0.04902818 -0.0798913 0.15062498
000280 13 2a 37 3d 57 d0 82 bc 5e ec 8e bd 98 bb 08 3d
       0.04471786 -0.015968485 -0.06978677 0.03338203
000290 89 60 5d 3d 6d 9a 0d be db b4 bf 3d 4a 25 cb bd
       0.05404714 -0.1382844 0.09360667 -0.09919222
0002a0 5e 87 77 be c0 46 cb 3d a2 5b 21 be ce 15 c6 bc
       -0.24172732 0.09925604 -0.15757611 -0.02418032
0002b0 82 36 5d bd 62 b5 ae bd 80 a2 f4 bd 71 c5 42 bd
       -0.05400706 -0.0853069 -0.11945057 -0.047551576
0002c0 bb ba bc bc 77 42 a7 3c d0 bc 24 be 7f 35 9c 3e
       -0.023038259 0.020417435 -0.16087651 0.30509564
0002d0 e6 90 9a 3d e8 6b 24 3e 65 54 11 3e dc 71 00 3e
       0.075471684 0.16056788 0.1419235 0.12543434
0002e0 1c ae 06 3b ef dd 39 3e 6d 0d 14 bd 54 b2 35 bc
       0.0020550555 0.18151067 -0.036145616 -0.01108988
0002f0 9b 55 0f be 7c f4 d7 3c 53 c0 30 3e 17 8a 83 bd
       -0.139975 0.026361696 0.17260866 -0.06422823
000300 da 89 cf bc 3c 00 0e 3e 4c 26 c6 3d b3 c3 07 be
       -0.025334287 0.13867277 0.09675273 -0.13258247
000310 f1 50 20 3e e0 45 e6 3c 2a 59 e7 bc 48 ef 76 bd
       0.15655877 0.02810949 -0.028240759 -0.06028679
000320 4f 7b 81 3d 81 2d 04 be cf 7a 08 be ff ef 2f bd
       0.063223474 -0.12907983 -0.13328098 -0.042953487
000330 33 64 02 bd c2 1c 18 bd 85 0e cd 3d d8 29 e7 3d
       -0.03183384 -0.0371368 0.10012535 0.11287278
000340 f4 35 2d bd ed 7d ba ba 49 b2 5a 3c 20 74 83 3d
       -0.04228778 -0.0014228203 0.013348171 0.064186335
000350 47 f1 2b be d9 34 af bd f4 bb 8a be 33 e1 db bc
       -0.16791259 -0.08555002 -0.27096522 -0.026840782
000360 40 b8 16 bd 63 fa 31 3c 3d a8 c9 bc bd 35 ab 3c
       -0.03679681 0.0108629195 -0.024616355 0.020899648
000370 1e 39 83 bd de e1 d1 3d 90 ca 59 3d 9d aa 10 bc
       -0.064073786 0.10248159 0.053171694 -0.00882974
000380 12 02 43 bd f3 d0 82 3d f7 19 bd 3d 7a 90 99 bd
       -0.047609396 0.0638751 0.09233468 -0.0749826
000390 80 2b 93 3d 08 21 0f 3d 75 bd 0d 3d 79 f9 10 bd
       0.07186031 0.03494361 0.03460451 -0.035394166
0003a0 c9 32 9b bd 61 bb ee bd 23 42 f5 bd c8 07 f6 3c
       -0.07578046 -0.116568334 -0.11975505 0.030033007
0003b0 2f 10 1b 3d fe ad 6b 3c 6c e1 ad bd d2 09 75 3d
       0.03785723 0.014384745 -0.084902614 0.05982382
0003c0 d3 89 d8 3c de 4b e5 3d 02 40 95 3d 16 72 77 bd
       0.026432907 0.11196111 0.07287599 -0.060411535
0003d0 64 6d bf 3d 5b ff a4 3d 0d 0d 0a bd 53 dd 02 3d
       0.093470365 0.08056518 -0.033703852 0.031949352
0003e0 d4 43 e6 3b 12 20 0f be ef 09 da 3d 00 aa d3 3d
       0.0070271287 -0.13977078 0.10646426 0.10335159
0003f0 23 9c 2e bd a9 c1 1f 3d f6 c5 de bd df 2e 3a 3d
       -0.042629372 0.039003048 -0.10877602 0.045454856

network_body.vector_processors.0.normalizer.running_mean f4 [58]
000000 41 92 5c 3f 3e f2 17 3d 58 72 cf 3d 4f 18 d9 3d
       0.86160666 0.037096255 0.10129231 0.106003396
000010 02 8e 6b 3f 3e f2 17 3d 68 2f 2f 3d b3 8e 5d 3d
       0.9201356 0.037096255 0.04276982 0.054091167
000020 3c 04 5c 3f 3e f2 17 3d 5a e5 d3 3d a6 f3 dd 3d
       0.8594396 0.037096255 0.1034648 0.10837488
000030 39 6e 6b 3f 3e f2 17 3d 87 27 31 3d 08 8f 69 3d
       0.9196506 0.037096255 0.043250587 0.05702117
000040 6f 62 5c 3f 3e f2 17 3d 61 f3 d0 3d e4 0c e2 3d
       0.860877 0.037096255 0.10202671 0.11037615
000050 c4 b0 6a 3f 3e f2 17 3d 72 00 3d 3d 3f 96 94 3d
       0.9167597 0.037096255 0.046143003 0.0725522
000060 92 cf 63 3f 3e f2 17 3d d4 89 95 3d ec aa b9 3d
       0.889886 0.037096255 0.07301679 0.09065804
000070 cb e2 54 3f 3e f2 17 3d 07 78 06 3e 01 b9 0d 3e
       0.8315856 0.037096255 0.13131724 0.13840105
000080 ad 0c 57 3f 3e f2 17 3d 67 a1 fb 3d 44 03 04 3e
       0.84003717 0.037096255 0.122866444 0.1289187
000090 b7 8d 57 3f 3e f2 17 3d 65 98 f7 3d 94 7e 03 3e
       0.84200615 0.037096255 0.12089614 0.12841254
0000a0 f3 a3 55 3f 3e f2 17 3d e3 72 03 3e 78 4c 08 3e
       0.8345329 0.037096255 0.12836795 0.1331042
0000b0 3a 01 56 3f 3e f2 17 3d 14 fe 01 3e 8d 8d 08 3e
       0.8359562 0.037096255 0.1269458 0.13335247
0000c0 3a 01 56 3f 3e f2 17 3d 14 fe 01 3e 8d 8d 08 3e
       0.8359562 0.037096255 0.1269458 0.13335247
0000d0 6f 18 32 3f 95 44 84 3f 5a d0 45 40 98 d8 e1 3f
       0.6956853 1.033343 3.0908418 1.7644224
0000e0 3a b9 3f 40 06 d5 f4 3f
       2.9956803 1.912751
