UnityProject/Assets/mlAgentsConfig/v2Run/ppoPathfinder.onnx (onnx, 93467 bytes, 9 tensors)

62 f4 [45]
000000 6e 18 b9 3a a0 e1 02 3b a0 e1 02 3b 6e 18 b9 3a
       0.001412166 0.0019970909 0.0019970909 0.001412166
000010 a0 e1 02 3b a0 e1 02 3b 6e 18 b9 3a a0 e1 02 3b
       0.0019970909 0.0019970909 0.001412166 0.0019970909
000020 a0 e1 02 3b 6e 18 b9 3a a0 e1 02 3b a0 e1 02 3b
       0.0019970909 0.001412166 0.0019970909 0.0019970909
000030 6e 18 b9 3a a0 e1 02 3b a0 e1 02 3b 6e 18 b9 3a
       0.001412166 0.0019970909 0.0019970909 0.001412166
000040 a0 e1 02 3b a0 e1 02 3b 6e 18 b9 3a a0 e1 02 3b
       0.0019970909 0.0019970909 0.001412166 0.0019970909
000050 a0 e1 02 3b 6e 18 b9 3a a0 e1 02 3b a0 e1 02 3b
       0.0019970909 0.001412166 0.0019970909 0.0019970909
000060 6e 18 b9 3a a0 e1 02 3b a0 e1 02 3b 6e 18 b9 3a
       0.001412166 0.0019970909 0.0019970909 0.001412166
000070 a0 e1 02 3b a0 e1 02 3b 6e 18 b9 3a a0 e1 02 3b
       0.0019970909 0.0019970909 0.001412166 0.0019970909
000080 a0 e1 02 3b 6e 18 b9 3a a0 e1 02 3b a0 e1 02 3b
       0.0019970909 0.001412166 0.0019970909 0.0019970909
000090 6e 18 b9 3a a0 e1 02 3b a0 e1 02 3b 9f f5 ed 3e
       0.001412166 0.0019970909 0.0019970909 0.46476457
0000a0 f4 52 c0 3e b3 b4 3a 40 7c d8 d9 3f c3 d8 1c 40
       0.37563288 2.917279 1.7019191 2.45073
0000b0 f6 ff e9 3f
       1.8281238

action_model._continuous_distribution.log_sigma f4 [1, 2]
000000 74 bf 88 be 10 58 08 bf
       -0.26708567 -0.5325937

action_model._continuous_distribution.mu.bias f4 [2]
000000 a3 85 f7 3d df c6 3a 3c
       0.12086036 0.011399954

action_model._continuous_distribution.mu.weight f4 [2, 128]
000000 57 1a 99 bd af b5 8d bd 76 c5 13 bd d8 69 9e bd
       -0.07475727 -0.06919419 -0.036076985 -0.07735032
000010 a2 a9 c7 bd 0f fe 87 3d 5a 97 e4 bd 81 fd 9d 3d
       -0.09749152 0.06640255 -0.111616805 0.07714368
000020 44 00 ee 3c 68 09 26 3c c4 a0 03 be 0b ae 8d bc
       0.029052861 0.010134079 -0.12854296 -0.017294904
000030 ed b9 e3 bd eb c1 08 be f4 c4 07 bb 9f 67 a4 bd
       -0.11119447 -0.13355224 -0.0020716758 -0.08027577
000040 a1 9d e8 bd 33 8e 17 be 9a fa b4 bd 85 86 ff 3b
       -0.1135819 -0.14800338 -0.08836861 0.0077980184
000050 85 cb 89 3d f3 b4 e8 3d 92 f3 5a 3d 70 85 6c bd
       0.067282714 0.11362638 0.053454943 -0.057744443
000060 ac 29 37 bd 48 91 88 3d f1 a8 33 be 45 91 b3 3d
       -0.044717476 0.06668335 -0.17544915 0.08767942
000070 73 3d f5 3d 7e 47 84 bd ec 3e 3d 3d 82 c9 06 3e
       0.11974611 -0.064589486 0.046202585 0.13162807
000080 78 2f 79 bd 98 83 71 bd e0 53 91 ba be 57 da bd
       -0.060836285 -0.05896339 -0.0011087619 -0.10661267
000090 e7 4b 7c bd dc 19 22 3c ba 29 e2 bd 96 b3 91 3c
       -0.061595824 0.009893861 -0.11043115 0.017785829
0000a0 cf 49 0c be 53 41 ad bd e3 d5 bb bb 95 6c 11 be
       -0.1370003 -0.08459725 -0.0057322844 -0.14201577
0000b0 43 cc 71 3c 8b 0f e1 bc 76 5e e1 bd 30 ea 94 3d
       0.014758172 -0.027473232 -0.11004345 0.0727123
0000c0 85 61 f7 bc 4c 38 b9 3c 23 cd d6 bd 86 e3 2f 3d
       -0.030197868 0.022609852 -0.104883455 0.042941593
0000d0 1c 22 eb bd 53 a5 3e 3d df a6 77 3d 52 a2 00 be
       -0.11481115 0.046544384 0.060461875 -0.1256192
0000e0 6a e9 4a bd ed 78 17 bd f9 6c 0c be 47 e6 9e bd
       -0.049539007 -0.03698056 -0.13713445 -0.07758766
0000f0 e3 ee c3 3c f7 eb a7 3d fa e5 4e 39 ba db 26 bc
       0.023917621 0.081993036 0.00019731364 -0.010184223
000100 ee 61 9e 3c d1 05 83 3c c7 f7 0e be 95 a8 f6 bd
       0.019333806 0.015993984 -0.13961707 -0.12043873
000110 30 d2 36 bd b5 59 c7 bd 57 4d 8c bc 93 3c 5d bd
       -0.044634044 -0.09733907 -0.017126722 -0.054012846
000120 55 4e f0 bd 03 80 01 be 53 5f 7d bd 42 32 41 3d
       -0.11733691 -0.12646489 -0.061858486 0.04716707
000130 a9 48 20 be 4b 06 38 bc ca ee a7 3d c9 bd a4 bd
       -0.15652718 -0.011231969 0.08199842 -0.08044011
000140 ae 2d 12 bd 19 4d e0 bd fe f1 16 bd 3f b7 78 3d
       -0.035688095 -0.10952205 -0.036851875 0.060721632
000150 27 5a 38 3d 0b a3 06 3d 94 fa b0 bc b9 d8 96 3d
       0.04500785 0.032870334 -0.02160386 0.07365555
000160 a6 ae 78 bd 8d 58 0d 3d 97 ab ac 3d 43 3b 7c 3c
       -0.060713433 0.034508277 0.08431166 0.0153949885
000170 83 b3 73 bd e6 48 10 3d 6f 27 26 3d 52 4b ef bd
       -0.059497368 0.03522577 0.04056495 -0.11684288
000180 66 7c 00 bd 35 fb 98 bc 1d 7c 99 bd ae 8d 03 be
       -0.031368636 -0.018674472 -0.07494376 -0.12847015
000190 2a 56 d3 bd 81 a5 d9 3c 93 5a 15 bd 33 57 9c 3d
       -0.10319169 0.026568176 -0.03646333 0.076338194
0001a0 20 ce 5b 3c 30 b1 00 3e a9 1d 83 3d 2c 5a ec bd
       0.013415843 0.12567592 0.064021416 -0.115406364
0001b0 85 91 1d be 41 c1 16 be f7 51 02 be 8c f2 d7 bd
       -0.15387543 -0.14722158 -0.1272658 -0.10544309
0001c0 8e db 99 3d a2 7a 9b bd eb 42 9d 3d 9d 72 e7 3c
       0.0751258 -0.0759175 0.07678779 0.028252894
0001d0 4a e9 af 3b cf 1a 1f be 82 3b 53 3c 8a 95 b3 bd
       0.0053683864 -0.1553757 0.012892606 -0.08768757
0001e0 bb b6 5f bd 48 b1 b8 bd 3e 35 6f 3d 49 d5 18 be
       -0.054617625 -0.09018189 0.058400385 -0.14925112
0001f0 c2 53 c3 3d 98 95 21 3d 92 20 a2 bd b6 2d 32 bd
       0.0953746 0.039449304 -0.079163685 -0.043500625
000200 ad ae c9 3c 92 12 7e 3d 4f 85 3a bd da 3c 81 bd
       0.024619425 0.06202943 -0.04553729 -0.06310435
000210 69 37 1b be 04 13 64 3c 9d fd 91 bd 02 8d 87 3d
       -0.15157856 0.013920549 -0.07128451 0.06618692
000220 56 79 31 bd 6a 7f 68 3c 98 61 c5 3c 1c 44 19 bd
       -0.043328606 0.014190534 0.024094388 -0.03741847
000230 bf 40 e1 3c 15 08 d0 3c 8e e7 66 3b 7e c0 04 3d
       0.027496694 0.025394479 0.0035233232 0.032410137
000240 d0 06 f5 bc e2 5c 8d bc b2 fb fb bd 2c 0b 9b 3d
       -0.029910475 -0.017256204 -0.123038664 0.0757049
000250 bc 1f 10 bd a2 93 a5 bd a0 99 b1 3c 7a ec 3d bd
       -0.035186514 -0.08084799 0.0216797 -0.0463681
000260 4d 95 b9 bd 12 50 45 3d 89 17 90 3c 8e b0 10 bc
       -0.0906168 0.048172064 0.017589347 -0.008831156
000270 45 da 38 bd 34 0a 9e 3d 33 ec 15 bd 9f 7a ea 3c
       -0.045130033 0.0771679 -0.03660221 0.028622923
000280 a8 06 42 3d f5 32 e6 3c ee 30 6b bd d5 98 8b bd
       0.04736963 0.02810047 -0.05741971 -0.0681626
000290 72 9d a5 3c 61 ba 9f bd b9 7b a5 3d ba c9 ed 3b
       0.020216677 -0.07799221 0.08080239 0.0072567137
0002a0 96 87 57 3d 42 ac 20 3d cb 59 33 bc 7a 2a 50 3d
       0.05261954 0.039226778 -0.010946701 0.05082176
0002b0 4b 9a 86 3d 14 c0 1d bd f5 8e 19 bd 0d d2 27 3c
       0.06572398 -0.038513258 -0.03748985 0.010242951
0002c0 be f8 08 bd 06 89 d7 3d 31 58 dc 3c 39 a8 cb bd
       -0.033440344 0.10524182 0.026897522 -0.09944195
0002d0 33 91 1c bc e2 14 51 bd 37 ef 56 bd d5 2c 9b bd
       -0.009556103 -0.051045306 -0.052474227 -0.075769104
0002e0 6d 4e b2 bb 96 18 92 3d 48 f3 c9 3b e9 4d c8 bd
       -0.005441478 0.07133596 0.0061630346 -0.09780485
0002f0 f4 27 34 3c cb c9 43 3d 5b 52 01 3d 6f 3f fd bd
       0.010995854 0.047799867 0.03157268 -0.123656146
000300 05 ef 95 ba 82 d8 cc bd be 67 5f bd 18 8c e9 bc
       -0.0011439031 -0.10002233 -0.054542296 -0.028509185
000310 b0 6f fe 3c 90 67 94 3d 29 22 80 bd 74 12 c7 3d
       0.031059116 0.072463155 -0.062565155 0.097203165
000320 27 1a bb 3b dc 1f f8 3c 2e 5f 98 bd 4e 13 6b bc
       0.0057099047 0.03028863 -0.07440029 -0.014347864
000330 d4 82 9e bd 21 1d 81 bd a7 79 71 bd b8 c2 2d bd
       -0.07739797 -0.06304384 -0.058953907 -0.042422026
000340 d3 31 ee bd 04 08 fc bd cc 00 a5 bb 84 4e 69 bd
       -0.11630597 -0.12306216 -0.0050354954 -0.056959644
000350 56 d4 a7 3d 6f aa 37 be ad cf a1 bd 06 22 26 bd
       0.08194797 -0.17936109 -0.07900939 -0.04055979
000360 d7 2b 05 3e fc bd 45 3d b5 a7 04 bd e6 ed 90 bb
       0.13005005 0.048276886 -0.0323865 -0.004422891
000370 56 68 ba bd 5d 3f 06 be cd 71 15 3d 5a 02 80 3d
       -0.09101932 -0.13110109 0.036485482 0.062504485
000380 21 de ed bd a2 35 8b 3c cc b3 54 3d 21 70 5f 3d
       -0.11614633 0.016993348 0.05192928 0.054550294
000390 81 c3 3f 3d 3c 8a b2 3d 2f 94 57 bd cb 5c 6a bd
       0.046817306 0.08717772 -0.052631553 -0.0572174
0003a0 e5 82 11 be f9 39 3d bc ef 59 b4 bd 35 ab 71 3c
       -0.14210089 -0.011549466 -0.08806216 0.014750292
0003b0 db 6a 32 3d f8 90 ba bd d7 f9 26 3d 75 b9 12 bd
       0.043558937 -0.09109682 0.04076561 -0.035821397
0003c0 be b1 ea 3b 4f bb a7 bb d5 b1 b9 bd 82 4a 97 bd
       0.007162302 -0.0051187645 -0.09067122 -0.07387258
0003d0 db 62 c6 3d ce 1e b5 3d ee 9f 0b bd 3d 13 0d 3d
       0.09686824 0.08843766 -0.034088068 0.034442175
0003e0 a4 0c d8 3c c5 6a 36 3c 58 f4 80 3d 3e 62 76 bd
       0.026373215 0.011133854 0.06296605 -0.060152285
0003f0 53 e7 e0 3d 60 88 dd bc bd ac b5 b9 3f 5c 62 bd
       0.109816216 -0.027042568 -0.0003465171 -0.055263754

network_body.linear_encoder.seq_layers.0.bias f4 [128]
000000 ea 22 66 3d 88 17 b8 3c d8 d5 69 bd 69 4a e9 ba
       0.05618564 0.022472158 -0.057088703 -0.0017798665
000010 d5 96 4e bd 15 ab 49 3d eb 62 6a bd d9 7d 88 3c
       -0.050436813 0.049235422 -0.05722324 0.016661571
000020 e4 02 48 3d db 21 48 3d 49 bd 2d bd 59 56 37 ba
       0.04883088 0.048860412 -0.042416845 -0.0006993763
000030 76 8e 45 bd 0d c2 64 3d b5 39 7c 3d dc 3c 8a 3d
       -0.048231564 0.055849124 0.06157847 0.06749889
000040 b4 97 98 3d bb f4 33 3d 28 90 32 bd dd a1 15 3d
       0.0745081 0.043934565 -0.04359451 0.036531318
000050 db 75 a2 bd cc a1 34 3c d1 6e b3 3d d0 4e b1 3d
       -0.079326354 0.0110249035 0.08761371 0.086576104
000060 17 11 75 3d 38 ed 96 3d b5 a3 92 3d 37 3b 4e 3c
       0.05983075 0.07369465 0.07160131 0.01258736
000070 1e 2a 6d 3d ef 0e 5f bc c2 c6 ef 3d a5 80 df 3d
       0.057901494 -0.0136144 0.11707832 0.10913209
000080 5e 45 5a bd 04 f7 9e 3d 8b 32 cb 3a a5 35 f5 bc
       -0.05328881 0.07761958 0.0015502734 -0.029932806
000090 b0 c2 8a 3d 6b c7 b1 bd ea 6f 95 3d 5c 1c d1 3d
       0.06775415 -0.08680614 0.072967365 0.10210487
0000a0 e0 7b 96 bd d6 3b 6f 3d a2 08 0f 3c 1c f7 82 3c
       -0.07347846 0.058406673 0.008730086 0.015986972
0000b0 c4 4c a9 bb 28 69 8e b9 fd 0b 71 3d 4c 87 9a bd
       -0.005166622 -0.00027162698 0.058849324 -0.07545337
0000c0 35 1b 5c 3d ee 5f 80 bd a5 a5 96 3c c4 e8 4e 3d
       0.053736884 -0.06268297 0.018389532 0.05051495
0000d0 33 5e c8 bd c2 83 c7 3c d7 44 38 bd f0 34 48 bd
       -0.09783592 0.02435482 -0.044987526 -0.04887861
0000e0 eb c6 82 bd 97 6e 81 bc 31 15 2d 3d 34 fd 11 3d
       -0.06385597 -0.015799804 0.042256538 0.035641864
0000f0 f2 fa b8 bd 33 55 43 bc 28 cf 16 bd 47 7d 9f 3d
       -0.09032239 -0.011922169 -0.036818653 0.07787567
000100 07 5d a5 3d 83 d2 64 3d 42 9b 2c bc 93 56 b7 3d
       0.08074384 0.055864822 -0.010535063 0.089520596
000110 fa 94 eb 3d 1c b9 4c 3d b4 af 91 3d 1a 9f 92 3c
       0.115030244 0.04998122 0.07113591 0.017898131
000120 06 61 b0 3d a7 22 a3 3d c4 a8 00 bc e2 a7 6d bd
       0.08612256 0.07965594 -0.007852737 -0.058021434
000130 87 a0 a0 3c 1a bd 8b 3d 9e 1d 97 3d 6a 02 3a bd
       0.019607795 0.06823178 0.07378696 -0.04541246
000140 18 89 c3 3d 0c 26 90 bd 46 b8 9f bd 1f a1 96 3d
       0.09547633 -0.07038507 -0.07798819 0.0735495
000150 e2 0c 16 bc e5 36 23 bc b7 5f 59 3d cb 6d 27 3c
       -0.009158345 -0.009961818 0.053069796 0.010219048
000160 29 5e ec 3b 18 6f b2 bc 92 40 90 3d 99 d1 14 bd
       0.007213373 -0.02178149 0.07043566 -0.0363327
000170 12 64 fa bc 77 b6 af bd 1d 96 73 bc 23 e2 ae 3d
       -0.030565295 -0.08579724 -0.014867333 0.08539226
000180 e3 a1 3f 3d 8d 88 22 3c 3f c4 5b bc 65 73 ef bb
       0.046785247 0.009920252 -0.013413488 -0.0073074573
000190 0d b7 71 bd 69 b4 68 3d e8 f7 77 3d 59 f9 44 bd
       -0.05901246 0.056812678 0.060539156 -0.04808936
0001a0 27 68 c2 3d 48 70 67 bc 00 8a 82 bd b3 dd 55 bd
       0.09492522 -0.014125891 -0.06373978 -0.052213382
0001b0 aa 8c 29 bd 46 c4 a4 bd e6 d4 a5 3d 96 f1 56 3c
       -0.041393913 -0.08045249 0.08097248 0.013119122
0001c0 e5 48 6b bd 94 63 e2 3d d5 ed 77 bc 3b 2f 9e bd
       -0.057442565 0.11054149 -0.015132387 -0.07723852
0001d0 ae f0 93 bd 71 16 b0 3d c4 52 85 bd d7 78 30 bd
       -0.072236404 0.0859803 -0.06509927 -0.04308399
0001e0 ad e5 02 3e 98 bd b1 3d ff d0 f0 bc 96 c1 d6 3d
       0.12782927 0.0867874 -0.029396532 0.10486142
0001f0 d3 fb 8d bd 24 5f 37 3d 3d cf 4d 3d d9 1c 5a bd
       -0.06932797 0.044768468 0.050246466 -0.053250168

network_body.linear_encoder.seq_layers.0.weight f4 [128, 45]
000000 2b 83 37 be 2a c3 e2 bd 7e 6b 15 3e 4f e4 ed be
       -0.1792113 -0.11072381 0.14591786 -0.46463248
000010 c2 0c 43 3e 6b 94 38 be 15 6b 3d be 46 7a bf 3d
       0.19047835 -0.18025367 -0.1849788 0.09349494
000020 ff 53 6d 3e 3e 7b a6 bd 81 b2 77 3e 46 3f b2 3d
       0.23176573 -0.08128975 0.24189188 0.08703475
000030 92 4d 83 3d 29 ae 13 3e 89 d1 c7 3d b6 68 07 3e
       0.0641128 0.14421906 0.097567625 0.13223538
000040 94 2e 33 3e 71 2b 98 bd d3 69 f9 bd 71 2f e9 bc
       0.17498237 -0.07430161 -0.121783875 -0.028465005
000050 37 fe 33 3e 14 cf 88 3e 4a b3 fe 3c fd 9f 1a be
       0.17577444 0.26720488 0.031091351 -0.15100093
000060 4a 31 ad be d8 80 3b 3e 9b 7e 8f bd 66 b0 92 3e
       -0.33826667 0.18310869 -0.0700657 0.28650206
000070 e7 d7 92 be de fa 06 3e a8 b5 cc bd 40 95 45 bd
       -0.28680345 0.13181636 -0.09995586 -0.04823804
000080 c6 c4 d8 ba 97 64 a2 bb d2 c2 03 3e 0f 99 56 be
       -0.0016538135 -0.004955839 0.12867287 -0.20956825
000090 6d d4 ad 3d a5 25 be ba 28 66 83 3d 1c 40 9d 3c
       0.084877826 -0.0014507069 0.06415969 0.019195609
0000a0 24 5e 18 3d 3d 31 17 bc 90 cd b0 3d 6b 3b 17 be
       0.037199154 -0.009228048 0.08632958 -0.1476876
0000b0 dd a6 e7 3e 49 31 18 be 88 fe 4d 3d 66 b3 3f 3e
       0.45244494 -0.14862551 0.050291568 0.18720779
0000c0 ff 15 93 3c 70 f9 68 3d a2 10 a2 bc 7c 86 51 3d
       0.017954824 0.056878507 -0.019783322 0.051153645
0000d0 16 ca 1d 3d df 2e 91 bb dd 5e ae 3d ba ef d0 be
       0.038522802 -0.0044306363 0.085141875 -0.40807897
0000e0 96 45 98 bd 9b 1b b3 bb d4 20 8c bd b3 4d 05 bd
       -0.074351475 -0.0054659373 -0.06842199 -0.032544803
0000f0 e6 29 a0 bd 4b ec be bd b9 4c 98 bd 01 b5 8f bd
       -0.078204915 -0.09322413 -0.07436509 -0.07016946
000100 61 c1 07 be cc 4f 79 3e 53 f3 4a bc f0 35 67 bd
       -0.13257362 0.24346846 -0.012387115 -0.056447923
000110 c5 77 4d 3e 58 e5 f4 3b ad 84 a9 bb 65 68 04 be
       0.2006522 0.007473629 -0.005173287 -0.12930448
000120 e4 bf bd 3e 23 a2 52 3e c1 eb c1 bd 16 3c 02 3e
       0.37060463 0.20569663 -0.094687946 0.12718233
000130 8a 7b 74 3d c6 71 84 bd 58 cc cf 3d 2b ea cf bd
       0.05968813 -0.06467013 0.10146397 -0.10152086
000140 16 58 d1 3d d2 34 ab bc 6e b7 5d be 70 ed 1f 3e
       0.10221879 -0.02089921 -0.21652004 0.15617919
000150 77 76 28 3e be f1 c7 3d 70 a7 20 3e fb 15 1c 3e
       0.16451441 0.097629055 0.15688872 0.1524276
000160 7d 88 1a bd 9f 4a 31 be b5 d8 f6 bc 1a 62 ae 3d
       -0.03772782 -0.17313622 -0.03013263 0.08514805
000170 a8 71 9e bd 0f 21 71 3e bd ca 86 bd 02 85 74 be
       -0.07736522 0.23547767 -0.06581638 -0.23878863
000180 ba c1 71 3e 53 e7 9d 3e 84 25 f6 bd 98 e7 b8 bd
       0.23609057 0.3084055 -0.12018874 -0.09028548
000190 19 f6 16 bd 11 39 bc bd e1 50 02 3e 63 a2 a8 ba
       -0.03685579 -0.09190572 0.12726165 -0.0012865778
0001a0 dc 9b 9a 3d cf c4 20 be 1a 98 ff 3c 9d e1 5e 3c
       0.07549259 -0.15700077 0.031200457 0.013603595
0001b0 65 02 c4 3d 5f 3f 3f bd 5f ff 57 3e 79 3f 09 bd
       0.09570769 -0.046691295 0.2109351 -0.033507798
0001c0 10 58 7c bd 4d 90 33 3d 14 c3 c2 bc 51 2e cb bd
       -0.06160742 0.043838788 -0.023774661 -0.099209435
0001d0 fd e9 b5 39 8c c7 f2 bd be 34 e3 bc 7f 66 9e 39
       0.00034697345 -0.11854467 -0.02773511 0.00030212474
0001e0 d5 a3 7c be 93 ea 69 bd 3b 91 f7 bd 0e 6f 18 bf
       -0.24671872 -0.057108473 -0.120882474 -0.59544456
0001f0 5f e9 74 be f1 73 63 be ce 49 39 3d df d8 4b bd
       -0.23917149 -0.22212197 0.0452364 -0.04976737
000200 2e 11 08 3d 3f 55 bf be f3 26 a2 3d 6d a8 a5 3d
       0.03321951 -0.37369725 0.07917585 0.08088765
000210 65 13 c9 3d 99 50 53 be f7 32 84 bd 1d ed 6f 3e
       0.09818152 -0.20636214 -0.06455033 0.23430295
000220 01 26 b4 3d 3b 75 05 3e 30 43 66 bd 5e bc 26 be
       0.08796311 0.13033001 -0.05621642 -0.16282794
000230 46 29 90 3e ff 01 db 3d 90 60 39 be 25 37 08 be
       0.2815649 0.1069374 -0.18103242 -0.13302286
000240 10 e6 2e be 2a 46 31 bd 9d a9 f9 3d b3 57 61 3d
       -0.1707995 -0.043279804 0.12190554 0.055015277
000250 79 61 2c 3d bd 0d ac bd fc e9 ea 3d 80 bb 4e 3e
       0.042085145 -0.08401058 0.1147041 0.20188713
000260 3b dd 4b 3e 19 8e ae 3c c1 af fd bd ec 46 00 3e
       0.19908611 0.021307992 -0.12387038 0.12527055
000270 73 1d d2 bd e3 da 2c bd bb 10 d8 3c 9f 6a fa 3c
       -0.10259523 -0.042200934 0.026375165 0.030568419
000280 c0 68 a3 ba 21 4a b1 3e 96 f5 6d 3d 1e 05 87 3d
       -0.0012467131 0.34626868 0.058095537 0.06592773
000290 14 cd 71 bc ff 29 55 bd 9e 09 00 3d dd 3f 9e bc
       -0.014758367 -0.052042004 0.03125917 -0.019317562
0002a0 9b 37 25 be 9a d1 39 3e 09 9a 50 3d 75 ae 6c 3e
       -0.16134493 0.18146363 0.05092815 0.23113425
0002b0 b4 cf 0c 3e c4 e4 18 be 43 ee dd bd ac 28 43 be
       0.13751107 -0.14931017 -0.108364604 -0.19058484
0002c0 bf 77 a7 bd 54 96 66 be a0 18 ee be 4e 75 49 be
       -0.08177137 -0.22518283 -0.46503162 -0.19673654
0002d0 ba de c6 bb 4e 6e 47 39 a8 0d 08 3e 78 c7 57 bd
       -0.0060690315 0.0001901921 0.1328646 -0.052680463
0002e0 0c 73 e0 bd 0d be fd bd 7e f7 30 3e 5a 54 6b be
       -0.109594434 -0.12389765 0.17281911 -0.22981396
0002f0 fb 5c b4 bd 69 df ca bc 7e 23 e4 bd af 9d ca 3d
       -0.08806797 -0.024764733 -0.11139582 0.09893357
000300 16 e3 d9 bc 6e 0a 16 be b6 96 46 3d 04 e6 c0 bd
       -0.02659754 -0.14652416 0.048483573 -0.09418872
000310 63 fa fd 3d 2a 69 06 be 58 fd 89 3d 1a fc 0c be
       0.12401273 -0.13126054 0.067377746 -0.13768044
000320 e8 38 ec 3d a1 3f 8a 3d 48 42 7d 3d bb 15 d2 3c
       0.115342915 0.067504175 0.06183079 0.025645128
000330 e0 cf b4 3e 17 6e c6 be 37 55 0d 3e 52 dd 07 be
       0.35314846 -0.38755867 0.13802038 -0.13268021
000340 9a 0b 1f bd c1 68 a1 3e 95 ee 80 be fd b4 10 3e
       -0.038829423 0.31525233 -0.25182024 0.14131542
000350 dd 70 65 3d 6e 3c 8a bd ae 4f 96 3d 75 fb 82 bd
       0.056015838 -0.06749807 0.073394164 -0.06395618
000360 33 28 07 3e 73 22 1a be 67 32 e8 bd ec 6f 50 be
       0.13198929 -0.15052204 -0.113377385 -0.20355195
000370 cb ce a2 bc 1a 86 0c 3e 21 a1 16 3e e2 21 cb bb
       -0.019873997 0.1372303 0.14709903 -0.0061991075
000380 2d c6 5f bd 87 f3 f7 3d 40 7e c1 bd 0f 0d 4e 3e
       -0.054632355 0.12106996 -0.094479084 0.20122169
000390 e5 fe da 3d f5 ec 31 3e b6 f5 86 bd 8d f1 50 bc
       0.106931485 0.17375548 -0.065898344 -0.012752903
0003a0 90 50 3b 3e d7 4c 3b 3e 48 83 06 3d 3f d3 3f 3e
       0.18292451 0.18291031 0.032840043 0.18732928
0003b0 d6 df e5 3d 47 0f e7 3d b5 3b 7d 3e b2 a9 2a 3e
       0.11224334 0.11282211 0.24729808 0.16666296
0003c0 e5 8b e6 bd d1 4b 1d 3e e9 0a 29 3e ee 85 dc bd
       -0.112571515 0.15360953 0.16508068 -0.107677326
0003d0 53 9f 0e bd 4d eb 60 3e 06 f6 16 3e a2 1c 85 3d
       -0.034819912 0.2196476 0.14742288 0.06499602
0003e0 e5 29 15 be ec 4e ae 3d bd e3 8c 3e e6 12 f8 bd
       -0.14566763 0.08511147 0.275175 -0.121129796
0003f0 19 37 d0 bd d1 c8 7d 3e 45 ff fb 3e cc 1e 07 bb
       -0.10166759 0.24783637 0.49218193 -0.0020617722

network_body.linear_encoder.seq_layers.2.bias f4 [128]
000000 d2 0d 8d bd 8f 95 a2 bd a4 15 fb bd 17 23 00 be
       -0.06887402 -0.07938682 -0.12259987 -0.12513386
000010 28 fa a6 bd 9a 41 b7 3d 10 c4 b1 bd 47 70 a1 3d
       -0.08153182 0.089480594 -0.08679974 0.07882743
000020 8b bd 36 3d 94 6f 8c 3d b8 f4 f0 bd 4d 8e 8c bd
       0.044614356 0.06857219 -0.117654264 -0.06863079
000030 ac be a0 bd 9c 52 d9 bd 0d ec 8e bc 94 6b b0 bd
       -0.07848868 -0.106114596 -0.017446542 -0.08614269
000040 2b ce e6 bd 49 01 da bd 4d 44 01 be 50 d6 ff 3c
       -0.11269792 -0.106447764 -0.12623711 0.031230122
000050 62 57 b2 3d 87 be 8f 3d e4 20 b7 3d 70 f5 f6 bd
       0.08708073 0.07018762 0.0894182 -0.12058532
000060 b0 d6 d5 bc a8 12 a3 3d f0 29 c3 bd e7 52 99 3d
       -0.026103348 0.07962543 -0.09529483 0.074865155
000070 ac ee af 3d 5f f9 3b 3b 2b ee 52 3d bc 7d b2 3d
       0.08590445 0.0028682572 0.051496666 0.08715388
000080 b0 2f c6 bd e7 ae c6 bd d4 20 d1 bd 3f 57 53 bd
       -0.096770644 -0.09701329 -0.102113396 -0.051596876
000090 ec b7 8b bc 81 45 b1 3c 11 a1 a8 bd 6b 7f 94 3d
       -0.017055474 0.021639587 -0.08233846 0.072508655
0000a0 5b fc 9c bd a4 b3 e0 bd 8f 0c 11 bd e7 a8 cb bd
       -0.076653205 -0.10971764 -0.035412367 -0.09944325
0000b0 3b cb 91 3d ac 53 0f bd c5 69 ce bd d1 f9 57 3d
       0.07118841 -0.034991905 -0.10078768 0.052728478
0000c0 79 eb 7b 3b f1 50 1a 3d cb 39 bc bd 25 ef be 3b
       0.0038439913 0.037674848 -0.09190711 0.005826848
0000d0 d8 22 00 be d5 46 8f 3d 7e 12 96 3d 14 c4 14 be
       -0.12513292 0.06995932 0.07327746 -0.14527923
0000e0 36 37 82 bc c0 68 6d bc d4 00 f5 bd ae 4e 5f bd
       -0.015895467 -0.014490306 -0.119630486 -0.054518394
0000f0 ee 27 d1 bc a3 3f d4 3d 87 d8 1f 3d 7e 41 e9 bc
       -0.025531735 0.103637 0.039024856 -0.028473612
000100 f4 d8 58 3d 6e ed 2d 3d 52 33 16 be a9 0e 14 be
       0.052941278 0.04246276 -0.14668015 -0.14458717
000110 2d e1 56 bd 5b 4d 46 bc c7 f7 5f bd d1 6f 16 bd
       -0.052460838 -0.012103404 -0.05467966 -0.03672773
000120 36 42 df bd eb 2d b6 bd bc 82 ed bd 3c cf 47 3d
       -0.109013006 -0.08895477 -0.11597201 0.04878162
000130 c6 10 3f bd f1 6b 1e bd b2 7c 92 3d 6f 10 21 be
       -0.046646856 -0.03867716 0.0715269 -0.15728925
000140 ad ef 3e 3b 1d 8d 00 bd d9 71 42 bd 98 b2 6b 3d
       0.0029134557 -0.031384576 -0.047471855 0.057543367
000150 c3 b6 7f 3d 60 98 4f 3d fd c0 b9 bc eb dd 99 3d
       0.062430155 0.050682425 -0.022675032 0.075130306
000160 a4 37 90 bc 1e 7a 86 3d 1e c1 92 3d 80 14 48 3d
       -0.017604657 0.06566261 0.071657404 0.048847675
000170 84 55 95 bd 44 a2 58 3d 25 0b b0 3d 8f 48 be bd
       -0.072917014 0.052889124 0.08595876 -0.09291183
000180 c7 00 f9 bd 3a 03 78 bd 89 47 bd bd 13 ef a2 bd
       -0.121583514 -0.060549952 -0.0924216 -0.07955756
000190 1e 6f ab bd ed 97 03 3d e4 7f e9 bd 6c 92 9b 3d
       -0.08370803 0.03212731 -0.11401346 0.07596287
0001a0 a0 10 53 3d 5d 3d c0 3d ec f5 a6 3d 02 9c d1 bd
       0.051529527 0.09386704 0.081523746 -0.10234834
0001b0 b1 b0 8c bd 52 94 8c bd 95 b9 a9 bd 0d 64 4b bd
       -0.06869639 -0.06864227 -0.0828735 -0.049655963
0001c0 c2 50 b3 3d b7 1b 09 be 2f 7a 97 3d 92 56 9c 3d
       0.08755638 -0.13389479 0.073963515 0.076336995
0001d0 0b 10 4a 3d fb 62 b3 bd 06 53 18 3d ee 58 db bd
       0.049331706 -0.087591134 0.037188552 -0.10710321
0001e0 a8 4c 84 bd 2a b1 d8 bd 84 0d 91 3d 8c 08 db bd
       -0.064599335 -0.10580666 0.07082656 -0.106949896
0001f0 e9 a5 ba 3d 8b 50 69 3d b6 ac bf bd 02 6f a2 bd
       0.09113676 0.056961577 -0.09359114 -0.07931329

network_body.linear_encoder.seq_layers.2.weight f4 [128, 128]
000000 95 d2 ac bd b5 b7 08 be a4 cc 67 3d 49 df 35 bb
       -0.08438603 -0.13351329 0.056591645 -0.0027751497
000010 f3 ce 51 3d fa 10 d5 bd ec 2d 19 3e 41 ae 27 bd
       0.051222753 -0.10403629 0.14958924 -0.040937666
000020 1d e6 34 be f7 07 1e be c4 ce aa bc cc 70 4d 3c
       -0.17665906 -0.15432726 -0.020850547 0.0125391
000030 ee d0 5f be 4a 3a 05 be 6d c6 96 3c 7b a6 04 be
       -0.21857044 -0.13010517 0.018405164 -0.12954132
000040 b2 f0 01 3e cd c3 bd 3c 57 1f 59 bb 0d ba b1 3c
       0.12689474 0.023164654 -0.0033130252 0.021695161
000050 ea 38 cd 3d f5 98 94 bc 69 01 c4 3d 1e cf 7e bd
       0.10020621 -0.018139342 0.095705815 -0.06220924
000060 6e 3c 93 bd e5 a6 a8 3d 97 59 43 3d 8f 4e 3e bd
       -0.071892604 0.082349576 0.04769286 -0.046461638
000070 0b 8b 65 3c b8 ef 3b 3d 0f 98 8e bc ed 46 17 be
       0.014010201 0.04588291 -0.017406492 -0.1477315
000080 91 ba 23 be 7b b6 e4 bb d7 6a 07 3b 21 78 d9 3c
       -0.15989138 -0.006979761 0.0020663047 0.02654654
000090 98 f6 fa 3c 34 2a 01 3d 5a d1 b1 bd ca 19 bd 3d
       0.030635163 0.03153439 -0.08682509 0.092334345
0000a0 1f 25 1a 3e ed 70 d1 3b 6e 81 f0 3a 61 e5 6b bd
       0.15053223 0.0063916356 0.001834912 -0.0575918
0000b0 e0 43 ed 3d db 11 fc bd 83 3f 40 be 51 89 c8 3d
       0.11585212 -0.12308093 -0.18774228 0.09791816
0000c0 e0 5f bd 3d 9f e4 2c bd 25 87 68 be 65 20 33 bd
       0.09246802 -0.042210218 -0.22707804 -0.043732066
0000d0 75 0d 9d bc 74 c7 2d be a2 7b df 3d 9a f2 71 3d
       -0.019171456 -0.16970617 0.10912253 0.059069254
0000e0 17 81 ef ba ef 1a 19 bd 7b 00 dc 3c e7 75 15 3e
       -0.0018272725 -0.0373792 0.026855698 0.14595757
0000f0 20 bc 82 3d 22 22 94 bc e0 1e 01 3e d2 fa a2 3c
       0.06383538 -0.018082682 0.12609434 0.019894991
000100 0f 1e 93 3d 29 18 74 3d ec 19 cb 3d 17 52 05 be
       0.071834676 0.059593353 0.099170536 -0.13019596
000110 8d 69 04 bc 84 04 32 be 25 5d 68 3d 30 1e 35 3d
       -0.008081806 -0.17384535 0.056729455 0.044218242
000120 9b d5 ef bd ee ba 15 3e 40 e7 06 bd bb 4e 96 3d
       -0.11710664 0.1462209 -0.03293538 0.073392354
000130 b5 0d b6 3d 61 cd 32 be 7e ac 99 3d 7b 40 9a bc
       0.08889333 -0.17461158 0.075036034 -0.018829575
000140 c6 6e 03 3e d7 67 eb 3c 2b c4 46 bd b6 13 e9 bd
       0.12835225 0.028736038 -0.048526924 -0.11380713
000150 d1 24 6d 3d 9f 2c bd bd 6a e3 05 be 08 8d f9 bd
       0.05789644 -0.092370264 -0.13075033 -0.12185103
000160 4b e9 2f be b1 58 73 bc 38 b5 9e 3c a6 c4 c1 bc
       -0.17178838 -0.014852689 0.019373521 -0.02365334
000170 a4 7e 0e 3d bb 24 37 3d 68 68 bf bd b9 22 b7 3d
       0.034788743 0.044712763 -0.09346086 0.0894217
000180 9a 8f 0c be 24 53 b8 bd 5c 7c 07 be 8e 37 16 3d
       -0.13726655 -0.09000233 -0.13231033 0.036674075
000190 fc c0 6f bd 30 a1 98 bd ca 2a c2 3d cc 0a 0c 3e
       -0.058533654 -0.07452619 0.094808176 0.13675994
0001a0 c5 f2 66 be 55 6d e3 3d 90 91 5c bc 2f ff 12 3c
       -0.22553547 0.11104838 -0.013462439 0.008971973
0001b0 e4 2e d5 ba 84 a8 0b 3d 22 4c ad bd 9f e1 f6 3c
       -0.0016264585 0.034096256 -0.08461787 0.030136881
0001c0 c8 d6 9a 3d 60 46 aa bc cb 78 f0 3d e5 d3 63 3e
       0.075604975 -0.02078551 0.117417894 0.222488
0001d0 8c f9 85 bc 98 2b 4b bc 90 82 c7 3d e8 3b a6 bd
       -0.016354345 -0.01240053 0.097417 -0.08116895
0001e0 89 35 8c 3d 2d ea af bd dc 7f 77 3d fd 96 dc 3b
       0.068461485 -0.08589587 0.06042467 0.0067318664
0001f0 a2 39 00 bc 4d bf 5d bd ed 5e 49 be 05 83 e6 bd
       -0.007826241 -0.054137517 -0.19665118 -0.11255459
000200 40 72 8b bd c4 c1 26 be cf 51 92 be 74 18 b1 bd
       -0.06808901 -0.16284853 -0.2857804 -0.08647242
000210 6c 90 bb bd b1 a2 43 be a5 39 1f 3e b7 b4 94 bc
       -0.09158406 -0.1910503 0.15549333 -0.018152578
000220 5c 18 75 3d b8 c5 b6 bd 24 b4 bd b9 d6 bc af 3d
       0.059837684 -0.089244306 -0.00036183104 0.085809395
000230 ea 52 44 be c1 85 cb 3c 4d 90 cf bd 25 ef b1 3d
       -0.19172254 0.024844052 -0.10134945 0.08688191
000240 a4 df 37 bd a3 08 1d bd 28 2f da 3d fb 0b 75 bd
       -0.044891015 -0.038338315 0.106535256 -0.05982588
000250 8d 10 20 3d be d1 2f 3e a3 76 89 3d f4 3a 09 3d
       0.039078284 0.17169854 0.06712081 0.033503488
000260 2d 9c 06 3e b0 9b e8 bd 50 cb 87 bd 47 f0 34 be
       0.13145514 -0.1135782 -0.06630576 -0.17669784
000270 6a 61 37 be 9e 8f 81 bd e9 01 f1 bd fb 44 19 3d
       -0.17908254 -0.06326221 -0.117679425 0.0374193
000280 7a 9b 49 bd d7 6a ed 3d b4 af 5f be f6 33 03 3e
       -0.04922054 0.11592644 -0.21844369 0.1281279
000290 7a d4 31 bd 0d 42 1e 3d a8 03 73 bd b7 d1 d8 3b
       -0.043415524 0.03863721 -0.05932966 0.006616797
0002a0 4a 4e 39 3e 55 49 09 bc 48 a6 be 3d 27 b4 00 3e
       0.18096271 -0.0083793 0.093090594 0.12568723
0002b0 d0 a3 58 bd c2 88 af bc 8c 3a 3e 3d f8 b8 a3 3c
       -0.0528906 -0.021427516 0.046442553 0.01998566
0002c0 d4 b4 dc 3d 83 8b 33 3e d6 51 21 be 5a 39 47 3e
       0.10776678 0.17533688 -0.15753874 0.19455472
0002d0 2f 00 9e 3d b8 e8 1c be 9d 2a d2 3b 92 30 db bd
       0.07714879 -0.1532315 0.0064137713 -0.107026234
0002e0 ae c2 bf bd a6 41 28 3e d5 38 9f bb 46 dc fd 3d
       -0.09363304 0.16431293 -0.00485907 0.123955294
0002f0 54 8c 9e 3d d1 b1 05 bd 48 35 0b be 3f 26 d7 bb
       0.07741609 -0.032640282 -0.13594544 -0.0065658386
000300 fc ca d6 b9 26 c1 16 be 12 6a 5f 3d 75 18 0d be
       -0.00040968496 -0.14722118 0.054544516 -0.13778861
000310 50 fb 40 be 12 7b b5 bd 59 c6 12 3d 73 99 b5 bd
       -0.18845868 -0.088613644 0.03583369 -0.08867159
000320 25 4f fb 3d b3 37 67 be b2 5b 3d be 28 ae 50 3e
       0.12270955 -0.22579841 -0.1849201 0.20378935
000330 4b 67 70 3d 27 25 21 be d7 13 ff bb 9f 28 a8 3d
       0.058692258 -0.15736829 -0.0077843475 0.08210873
000340 ce 78 3b 3d bd e0 02 3c 9e c7 28 3e be 9d 94 bc
       0.045769505 0.007988152 0.16482398 -0.018141624
000350 3e f9 e2 bd 0a a3 de bd 58 b8 21 be df 58 83 bd
       -0.110826954 -0.10870941 -0.15792978 -0.06413435
000360 bb 52 14 3e c4 77 af bc b3 a6 ea bd 58 60 1e 3d
       0.14484684 -0.021419413 -0.114575766 0.0386661
000370 fa c5 4d 3e 7a 42 41 3e d4 86 65 3d c1 a7 b2 bc
       0.20095053 0.18873015 0.056036785 -0.021808507
000380 c9 2c cd bc db c4 66 bc 67 21 29 3e 87 3f 5d 3b
       -0.02504577 -0.01408502 0.16516648 0.003375979
000390 c1 c3 fd bd c0 a8 9b be db ae 7d bd 48 11 88 3d
       -0.12390853 -0.30402184 -0.061934333 0.06643921
0003a0 bf 3a fb 3c f8 79 cd bc ac 86 52 bd 30 68 94 bd
       0.03066766 -0.025082573 -0.051397964 -0.07246435
0003b0 45 a9 48 3d e3 13 40 3e c2 09 d8 bd 56 d1 cc 3d
       0.048989553 0.18757586 -0.10548736 0.10000865
0003c0 ec 52 f7 bd 6a d0 08 bd c5 82 7c 3b d4 84 52 bd
       -0.12076363 -0.033401884 0.0038530093 -0.051396206
0003d0 44 b4 9e 3d ec 2e eb bd 12 c0 62 3d 2e 7a 42 3e
       0.07749227 -0.11483559 0.055358954 0.1899192
0003e0 d6 c1 99 bd a5 e8 01 be dc fe 86 be fc 71 ef bd
       -0.075076744 -0.12686403 -0.26366317 -0.11691663
0003f0 bc d2 97 bd 0f 1a e9 bc 31 86 28 bd c3 9f ef 3d
       -0.07413241 -0.028454809 -0.0411436 0.11700394

network_body.vector_processors.0.normalizer.running_mean f4 [45]
000000 00 00 00 00 ee fe 7f 3f ee fe 7f 3f 00 00 00 00
       0.0 0.99998367 0.99998367 0.0
000010 ee fe 7f 3f ee fe 7f 3f 00 00 00 00 ee fe 7f 3f
       0.99998367 0.99998367 0.0 0.99998367
000020 ee fe 7f 3f 00 00 00 00 ee fe 7f 3f ee fe 7f 3f
       0.99998367 0.0 0.99998367 0.99998367
000030 00 00 00 00 ee fe 7f 3f ee fe 7f 3f 00 00 00 00
       0.0 0.99998367 0.99998367 0.0
000040 ee fe 7f 3f ee fe 7f 3f 00 00 00 00 ee fe 7f 3f
       0.99998367 0.99998367 0.0 0.99998367
000050 ee fe 7f 3f 00 00 00 00 ee fe 7f 3f ee fe 7f 3f
       0.99998367 0.0 0.99998367 0.99998367
000060 00 00 00 00 ee fe 7f 3f ee fe 7f 3f 00 00 00 00
       0.0 0.99998367 0.99998367 0.0
000070 ee fe 7f 3f ee fe 7f 3f 00 00 00 00 ee fe 7f 3f
       0.99998367 0.99998367 0.0 0.99998367
000080 ee fe 7f 3f 00 00 00 00 ee fe 7f 3f ee fe 7f 3f
       0.99998367 0.0 0.99998367 0.99998367
000090 00 00 00 00 ee fe 7f 3f ee fe 7f 3f 63 c0 1f 3f
       0.0 0.99998367 0.99998367 0.62402934
0000a0 0e 63 7f 3f bd f0 39 40 d1 60 d3 3f e9 af 31 40
       0.9976052 2.9053185 1.6513921 2.7763617
0000b0 2e 1b e9 3f
       1.821142
