UnityProject/Assets/mlAgentsConfig/ppoPathfinder.onnx (onnx, 93467 bytes, 9 tensors)

62 f4 [45]
0	0x3acfcda5	0.0015854134
1	0x3b12f01f	0.0022420955
2	0x3b12f01f	0.0022420955
3	0x3acfcda5	0.0015854134
4	0x3b12f01f	0.0022420955
5	0x3b12f01f	0.0022420955
6	0x3acfcda5	0.0015854134
7	0x3b12f01f	0.0022420955
8	0x3b12f01f	0.0022420955
9	0x3acfcda5	0.0015854134
10	0x3b12f01f	0.0022420955
11	0x3b12f01f	0.0022420955
12	0x3acfcda5	0.0015854134
13	0x3b12f01f	0.0022420955
14	0x3b12f01f	0.0022420955
15	0x3acfcda5	0.0015854134
16	0x3b12f01f	0.0022420955
17	0x3b12f01f	0.0022420955
18	0x3acfcda5	0.0015854134
19	0x3b12f01f	0.0022420955
20	0x3b12f01f	0.0022420955
21	0x3acfcda5	0.0015854134
22	0x3b12f01f	0.0022420955
23	0x3b12f01f	0.0022420955
24	0x3acfcda5	0.0015854134
25	0x3b12f01f	0.0022420955
26	0x3b12f01f	0.0022420955
27	0x3acfcda5	0.0015854134
28	0x3b12f01f	0.0022420955
29	0x3b12f01f	0.0022420955
30	0x3acfcda5	0.0015854134
31	0x3b12f01f	0.0022420955
32	0x3b12f01f	0.0022420955
33	0x3acfcda5	0.0015854134
34	0x3b12f01f	0.0022420955
35	0x3b12f01f	0.0022420955
36	0x3acfcda5	0.0015854134
37	0x3b12f01f	0.0022420955
38	0x3b12f01f	0.0022420955
39	0x3f04cd8c	0.5187614
40	0x3efea8f6	0.49738282
41	0x403efec4	2.9842997
42	0x3fcac231	1.5840513
43	0x4077b0e1	3.8701708
44	0x4002576f	2.0365865

action_model._continuous_distribution.log_sigma f4 [1, 2]
0	0xbea04ee8	-0.313102
1	0xbeab0d09	-0.33408383

action_model._continuous_distribution.mu.bias f4 [2]
0	0x3c6bf936	0.014402678
1	0x3cab8d6a	0.020941455

action_model._continuous_distribution.mu.weight f4 [2, 128]
0	0xbdc763db	-0.09735843
1	0xbd853a88	-0.065053046
2	0x3dd3da5e	0.103443846
3	0x3dab8df2	0.08376683
4	0xbd975630	-0.07389486
5	0xbd260eb7	-0.040541377
6	0xbde1decc	-0.11028823
7	0xbb9f06bd	-0.004853098
8	0xbbcb6afc	-0.006207822
9	0x3d8a7e65	0.06762389
10	0xbe12076a	-0.1426064
11	0x3d963e7c	0.07336137
12	0x3d5236c4	0.05132176
13	0x3d942dfb	0.072353326
14	0xbda0dc4f	-0.078545205
15	0x3dd014dc	0.101602286
16	0x3dedda83	0.116139434
17	0xbdbc1355	-0.09183375
18	0xbd767231	-0.060167495
19	0x3d69d4df	0.057087775
20	0x3daddb75	0.08489124
21	0xbe087a6d	-0.13327952
22	0x3ccea730	0.025226206
23	0xbe00408d	-0.12524624
24	0x3d6291d2	0.055314846
25	0x3dfc0cac	0.123071045
26	0xbcce3a46	-0.025174271
27	0x3c8c50ad	0.017128313
28	0x3d007341	0.031359915
29	0x3bd394da	0.0064569535
30	0x3d6bb30e	0.057543807
31	0x3d4096e7	0.04701891
32	0x3dca2305	0.09869961
33	0xbe19a0b9	-0.15002717
34	0xbdb8114f	-0.08987676
35	0xbe0e89a1	-0.13919689
36	0x3e1b1d0e	0.15147802
37	0xbdc1194e	-0.094286546
38	0xbd8928d8	-0.066972435
39	0xbde3d859	-0.111252494
40	0x3c7313aa	0.014836231
41	0xbdcdd2aa	-0.100499466
42	0x3dc6f872	0.09715356
43	0xbddf452c	-0.10901865
44	0xbde1a26d	-0.110173084
45	0xbd5265e4	-0.0513667
46	0x3da7dfb5	0.081969656
47	0xbdc0dd36	-0.09417193
48	0xbba51693	-0.0050380914
49	0xbd8b8784	-0.06812957
50	0x3db10b9e	0.08644794
51	0xbd783d5b	-0.060605388
52	0xbc83f6c0	-0.01610887
53	0x3ca3270e	0.019916084
54	0x3d6faa7b	0.058512192
55	0x3d410428	0.047123104
56	0xbdf3d5b7	-0.11905997
57	0xbe2db90b	-0.1696512
58	0x3e076d9a	0.13225403
59	0x3dae05bf	0.0849719
60	0xbdb4a458	-0.088204086
61	0x3dcdcce9	0.10048849
62	0xbd0d2cb2	-0.034466453
63	0xbdbdac05	-0.09261326
64	0x3d93138a	0.07181461
65	0xbdae1338	-0.084997594
66	0x3d94759d	0.072489955
67	0x3d8b19ac	0.06792006
68	0xbd078e83	-0.033094894
69	0x3c07ba6b	0.008284192
70	0xbd83acb1	-0.06429423
71	0xbdd836e6	-0.10557346
72	0x3c1a2734	0.009408761
73	0xbdca2161	-0.09869648
74	0xbd538440	-0.051639795
75	0x3c684fd0	0.014179185
76	0xbe0d8a0d	-0.13822193
77	0x3e2fd392	0.17170551
78	0x3cd31e07	0.025771154
79	0x3d4415b3	0.047872256
80	0xbe413595	-0.18868096
81	0xbde9a739	-0.11408848
82	0xbdfa0982	-0.12208845
83	0x3d8361e9	0.06415159
84	0xbbe79059	-0.007066768
85	0xbcb0dab4	-0.02158866
86	0x3c53790a	0.012907276
87	0xbbad5988	-0.005290214
88	0x3d242d17	0.040082064
89	0x3e064e42	0.1311579
90	0xbe02e526	-0.12782726
91	0xbdb6d2f3	-0.08926954
92	0x3d330416	0.04370507
93	0x3d400454	0.046879128
94	0x3c213254	0.009838659
95	0xbdf8309e	-0.12118648
96	0x3cdc756c	0.02691146
97	0xbce794f7	-0.028269274
98	0x3d1324c4	0.035923734
99	0xbd9e617e	-0.07733439
100	0xbccb8abe	-0.02484643
101	0x3d2fa22c	0.04287927
102	0xbde47f75	-0.11157123
103	0x3d23abbe	0.039958708
104	0x3deb9c96	0.11504476
105	0x3cb9ee28	0.02269657
106	0xbd085ec2	-0.033293493
107	0xbd83976f	-0.06425368
108	0xbd3d8371	-0.04626793
109	0x3dd1d387	0.10245424
110	0x3c00daaa	0.007864634
111	0xbe19dbae	-0.15025207
112	0x3dc853db	0.09781619
113	0x3d85964e	0.06522809
114	0x3e3529c4	0.17691714
115	0x3d5ab0e5	0.053391356
116	0xbdad0bc0	-0.08449507
117	0x3dec5453	0.11539521
118	0xbca5c73a	-0.0202366
119	0x3d36e5c0	0.0446527
120	0x3d9d30ae	0.076753005
121	0x3d81d1b8	0.06338829
122	0x3cba62cd	0.02275219
123	0xbe1ab328	-0.15107405
124	0xbe0966bf	-0.13418101
125	0xbe1caf4c	-0.15301245
126	0x3d1ece8f	0.03877121
127	0xbd6a7646	-0.0572417
128	0x3bbb870e	0.005722887
129	0x3db05695	0.08610264
130	0x3c0564fa	0.0081417505
131	0xbcad1758	-0.021129295
132	0xbcea3881	-0.028591396
133	0x3d38f435	0.04515477
134	0xba5ad8bb	-0.00083483354
135	0xbd807051	-0.06271423
136	0x3d8fa27a	0.07013412
137	0xbc4322ea	-0.01191018
138	0xbcee8e54	-0.029120602
139	0x3b9036d0	0.0044010654
140	0xbccfb832	-0.025356386
141	0x3d804356	0.06262843
142	0x3d302528	0.043004185
143	0x3d7625d0	0.060094655
144	0x3dbc74d9	0.092019744
145	0xbd3df236	-0.04637357
146	0x3d398f33	0.04530258
147	0xbd6c2bae	-0.057658844
148	0xbc42ccd6	-0.011889657
149	0xbc8a0a84	-0.016850717
150	0xbc983827	-0.018581463
151	0x3d138f0d	0.036025096
152	0xbd5eabe6	-0.054363154
153	0x3d0f7c89	0.035030875
154	0xbd28c3f1	-0.04120249
155	0xbd40a14c	-0.047028825
156	0xbccf6026	-0.025314402
157	0xbcaedb33	-0.021344757
158	0xbcc09dc2	-0.023512725
159	0x3db0c97f	0.08632182
160	0x3cd64c12	0.02615932
161	0xbd969412	-0.07352461
162	0x3d139be3	0.036037337
163	0x3c46e268	0.01213894
164	0x3d396d3f	0.0452702
165	0x3bd42e63	0.0064752563
166	0x3d576c22	0.052593358
167	0x3d8dcf27	0.06924277
168	0xbccb5bc5	-0.024824033
169	0x3d423919	0.047417734
170	0x3d483a88	0.048883945
171	0x3cfe82c4	0.031068213
172	0x3c6c20f2	0.014412152
173	0xbda8a5a4	-0.082347184
174	0xbb3661b2	-0.0027829227
175	0xbc8b2815	-0.016986886
176	0xbc2f345a	-0.010693634
177	0x3d5551d8	0.052080005
178	0x3d8d6f3f	0.06905984
179	0x3bb46c8b	0.0055061034
180	0x3d36732f	0.04454344
181	0x3d860fa6	0.065459535
182	0x3db7bc5d	0.08971474
183	0x3d253716	0.040335737
184	0xbd825279	-0.06363387
185	0xbc8b55d2	-0.017008696
186	0x3c858889	0.016300457
187	0x3bd2948d	0.0064264
188	0x3d733f7b	0.05938671
189	0x3c7b3f7c	0.01533496
190	0x3d2eb4ad	0.042652775
191	0xbb47bec9	-0.0030478707
192	0xbc02e3aa	-0.00798885
193	0xbc73c3e3	-0.014878246
194	0xbd335d38	-0.043790072
195	0xbca5f02a	-0.02025612
196	0xbcadee5b	-0.02123182
197	0xbcba430f	-0.022737054
198	0x3cfd690b	0.030933877
199	0x3cfc0e2d	0.030768478
200	0x3db377f6	0.08763115
201	0x3d0e78e6	0.034783266
202	0x3da3ad53	0.07992043
203	0xbd9a7f69	-0.07543833
204	0xbd8fe493	-0.07026019
205	0x3d7e13ce	0.062030606
206	0xbd264107	-0.04058936
207	0x3d62bc50	0.05535537
208	0xbd30c634	-0.04315777
209	0xbb05bdf5	-0.0020407413
210	0xbd4b5c47	-0.04964855
211	0xbb597034	-0.003317845
212	0x3d5f434e	0.054507546
213	0x3cabe186	0.020981561
214	0xbcfe615a	-0.03105228
215	0x3d3d52e6	0.046221636
216	0xbd8550d3	-0.065095566
217	0x3cd70b9d	0.026250655
218	0xbce5e803	-0.028064733
219	0xbd0ad325	-0.03389277
220	0xbd847858	-0.06468266
221	0xbd223534	-0.03960152
222	0x3a70cd89	0.00091859006
223	0xbd3dee37	-0.046369758
224	0xbd35f532	-0.04442329
225	0x3d2a5f2d	0.041594673
226	0x3d9c710b	0.07638749
227	0x3b581fc1	0.0032977911
228	0x3d9724b5	0.07380048
229	0xbc1f419b	-0.009720231
230	0xbd52ffad	-0.051513363
231	0x3da108c9	0.07863004
232	0xbc67eaba	-0.014155084
233	0xbd194a22	-0.037424214
234	0x3d984987	0.07435899
235	0x3bb077f6	0.005385394
236	0x3dbf2f9a	0.09335251
237	0xbaa658a3	-0.0012691211
238	0xbcf9a7e9	-0.030475574
239	0xbb17d656	-0.0023168526
240	0xbd01cb83	-0.031688225
241	0xbbf7c15f	-0.0075608934
242	0x3c5e2448	0.013558455
243	0xbd6079d3	-0.05480368
244	0x3d586afd	0.052836407
245	0x3d4faaad	0.05069988
246	0x3dafcdde	0.08584188
247	0x3c851c7d	0.016248936
248	0xbd17a7a8	-0.037025124
249	0x3d75904e	0.059952073
250	0xbd3ff3ef	-0.046863493
251	0xbd0639aa	-0.032769836
252	0x3c23461d	0.009965447
253	0xbd65f5f5	-0.056142766
254	0xbd4ef029	-0.050522003
255	0x3df3d611	0.11906064

network_body.linear_encoder.seq_layers.0.bias f4 [128]
0	0x3b0494b0	0.0020230226
1	0x3cebaf90	0.028770238
2	0x3c94a224	0.01814372
3	0x3d6930d0	0.056931317
4	0x3d5b7715	0.053580362
5	0x3bc86578	0.0061156116
6	0xbd71970c	-0.05898194
7	0x3cc3a6d3	0.023883259
8	0x3cf23122	0.029564444
9	0xbd7850f5	-0.06062408
10	0x3b143209	0.002261283
11	0xbd1a7f92	-0.037719317
12	0x3c636f1c	0.013881471
13	0x3cb4c670	0.022067279
14	0x3d0699de	0.032861583
15	0xbd249117	-0.04017743
16	0x3bb9e0f4	0.0056725685
17	0xbd693470	-0.056934774
18	0x3d07a052	0.033111878
19	0xbd08fabc	-0.033442244
20	0xbd07f01a	-0.033187963
21	0xbcca6911	-0.024708303
22	0x3ce53f0b	0.027984163
23	0xbd043f1c	-0.03228675
24	0xbd8cb88b	-0.06871136
25	0xbc252eed	-0.010081989
26	0x3cbbc85b	0.022922685
27	0xbd77408a	-0.060364284
28	0xbc12d0f4	-0.008960951
29	0x3ca3936f	0.019967763
30	0x3c9e89b4	0.019352771
31	0xbc2698ea	-0.0101682935
32	0xbd0ad8d1	-0.03389818
33	0x3d22b4cd	0.039723206
34	0x3cf606ba	0.030032504
35	0x3ceff86b	0.02929326
36	0x3c48496e	0.012224538
37	0x3db4c2b9	0.08826203
38	0x3d2407f2	0.04004664
39	0x3d301d72	0.04299683
40	0x3cd481e2	0.02594084
41	0xbc594319	-0.013260626
42	0xbd826bff	-0.06368255
43	0xbd55db14	-0.052210882
44	0xbc8830c1	-0.01662481
45	0x3cf4c53c	0.029879205
46	0x3ccdbf62	0.025115672
47	0x3d6c9943	0.05776335
48	0x3cb1b779	0.021693932
49	0xbbdcbb37	-0.006736185
50	0x3d066049	0.03280667
51	0x3d72b2a1	0.059252385
52	0x3cde37be	0.02712619
53	0x3d22b40d	0.03972249
54	0x39f04621	0.00045828617
55	0xbd9b302d	-0.07577548
56	0x3bf86158	0.0075799637
57	0xbbf0b493	-0.007345745
58	0x3c8e1f75	0.017348984
59	0x3d37603e	0.044769518
60	0x3d1156e5	0.03548326
61	0xbbcf1597	-0.0063197124
62	0x3a1fd9d0	0.0006097825
63	0xbd9364cf	-0.07196962
64	0xbccd83f3	-0.025087332
65	0xbc40943c	-0.011754092
66	0xbd116ec1	-0.035506014
67	0x3cceaa2b	0.025227627
68	0xba9f4867	-0.0012152315
69	0xbc3dffad	-0.011596602
70	0x3c224e38	0.009906344
71	0xbc3400dc	-0.010986533
72	0xbc9b6197	-0.018967433
73	0x3b382f75	0.0028104458
74	0xbcb81701	-0.022471907
75	0x3d5c0daf	0.053723987
76	0xbcb13c0d	-0.02163508
77	0x3bc694db	0.0060602254
78	0xbcaa4476	-0.020784598
79	0xbb8da184	-0.0043222327
80	0x3c53807d	0.012909052
81	0xbcddc478	-0.027071223
82	0xbd32dfa4	-0.04367031
83	0x3d117616	0.035513006
84	0x3c02e084	0.007988099
85	0xbd6ee64e	-0.058325104
86	0xbc13d7a5	-0.009023582
87	0x3d03596e	0.03206771
88	0x3bbb3adb	0.005713803
89	0x3d76db9b	0.060268026
90	0xbc619acb	-0.013769816
91	0x3c5bba5b	0.01341113
92	0xbc9063af	-0.017625658
93	0x3d4f98fc	0.050683007
94	0xbd07bb43	-0.03313757
95	0x3d37f5a5	0.044912
96	0x3d282489	0.041050468
97	0x3cf4635d	0.029832536
98	0x3c11453e	0.008866606
99	0xbd276c8e	-0.04087501
100	0xbc6d78b8	-0.014494114
101	0xbc8333cd	-0.016015911
102	0x3b12dad8	0.0022408273
103	0x3d0f3326	0.03496089
104	0x3d295971	0.041345064
105	0xb932d9af	-0.00017056496
106	0x3c745e9a	0.014915133
107	0x3b4fc29c	0.003170169
108	0x3ce448ce	0.027866747
109	0xbcce2a38	-0.025166616
110	0xbba27a82	-0.0049584517
111	0xbd73b835	-0.059501845
112	0xbd883c77	-0.06652158
113	0xbbc3685a	-0.0059633674
114	0xbbb5160d	-0.0055263103
115	0xbd3dcd22	-0.046338208
116	0xbcb80a17	-0.022465749
117	0x3c1522bc	0.00910252
118	0xbc36a088	-0.011146672
119	0x3cb1b0ba	0.021690715
120	0x3c746edd	0.01491901
121	0xbd8c22bf	-0.06842565
122	0x3c92efab	0.017936548
123	0xbd24280f	-0.040077265
124	0x3c327ac0	0.010893524
125	0x3d974a39	0.07387204
126	0xba1ff18e	-0.0006101363
127	0xbc5a35b7	-0.013318471

network_body.linear_encoder.seq_layers.0.weight f4 [128, 45]
0	0xbe1b2d40	-0.1515398
1	0xbe49a265	-0.19690855
2	0xbcb4629e	-0.02201968
3	0x3d94ba18	0.07262057
4	0x3e1ddc5a	0.15416089
5	0xbcf3b923	-0.029751366
6	0x3e6e9efd	0.23302837
7	0x3d09846b	0.03357355
8	0xbe3b7d98	-0.18309629
9	0xbd96860b	-0.073497854
10	0x3dabbc30	0.08385503
11	0x3c07de1c	0.008292701
12	0x3c3ef2e5	0.01165459
13	0x3ebf5038	0.3736589
14	0x3dc27d2d	0.09496532
15	0xbd2b3bf5	-0.041805226
16	0xbe7e6f23	-0.24847083
17	0x3d7f5083	0.06233264
18	0x3c9cea46	0.019154679
19	0xbe04e58e	-0.12978193
20	0xbe2ad475	-0.16682608
21	0x3d633212	0.055467673
22	0xbc5354f3	-0.012898671
23	0x3bdca73a	0.006733802
24	0xbc8830fa	-0.016624916
25	0x3e8abccf	0.27097175
26	0x3e05aa30	0.13053203
27	0x3e0488ac	0.12942761
28	0x3d8bc186	0.06824021
29	0x3a8af201	0.0010600687
30	0xbd9548d1	-0.07289279
31	0x3eb25fb9	0.34838656
32	0x3e02321b	0.12714426
33	0xbcfaf15f	-0.030632673
34	0x3b2ea7a9	0.0026650226
35	0xbdf480b1	-0.119386084
36	0xbc8b5a5e	-0.017010864
37	0x3e6b67d1	0.22988822
38	0xbe55ff12	-0.20898083
39	0xbd489f79	-0.04898021
40	0x3e740160	0.2382865
41	0xbe6c357a	-0.23067275
42	0x3d4a4ade	0.049387805
43	0x3e0ee057	0.13952766
44	0xbe0b96a9	-0.13631691
45	0x3e0f5381	0.13996698
46	0x3dc14b57	0.09438198
47	0x3d852fb5	0.0650324
48	0x3ebeb5cc	0.37248075
49	0x3d14f70c	0.036368415
50	0xbdacb22c	-0.08432421
51	0xbd79e292	-0.06100709
52	0x3e70f4aa	0.23530832
53	0x3e5c5d3c	0.21519941
54	0xbd8fbb18	-0.07018107
55	0x3c1b6e47	0.009486741
56	0x3a9ff757	0.001220445
57	0x3a86b569	0.0010277453
58	0xbe9c6c93	-0.30551586
59	0x3e4b2435	0.1983803
60	0xbc98adac	-0.0186375
61	0x3d9de036	0.077087805
62	0xbe5337bb	-0.20626728
63	0x3db39622	0.0876887
64	0x3cfa6aa3	0.030568426
65	0xbe1cab91	-0.15299822
66	0xbe3c3365	-0.1837898
67	0xbedaf965	-0.42768398
68	0x3d11e09a	0.035614587
69	0x3dae4392	0.08508982
70	0xbd842fda	-0.064544395
71	0x3c95c9dc	0.01828473
72	0xbc832fb1	-0.016013952
73	0x3e738c8e	0.23784086
74	0xbd07d34f	-0.033160504
75	0x3c10ccd6	0.008837899
76	0x3d498a3b	0.049204092
77	0xbd86c623	-0.0658076
78	0x3c76e265	0.015068625
79	0xbde253eb	-0.11051162
80	0xbbb2466b	-0.0054405234
81	0xbd3af74d	-0.045646
82	0xbe13f3e8	-0.14448512
83	0x3cb14d9d	0.021643454
84	0xbd32708a	-0.043564357
85	0x3d69442a	0.056949772
86	0xbe478719	-0.1948513
87	0xbe1eb8a4	-0.15500122
88	0x3d040156	0.032227837
89	0xbcddf473	-0.027094102
90	0x3d1158ef	0.035485204
91	0xbe0c5af6	-0.13706574
92	0xbe435448	-0.1907512
93	0xbe0d27fe	-0.13784787
94	0xbd69f9a1	-0.05712283
95	0xbe8c5b73	-0.2741352
96	0xbe91d93f	-0.28486058
97	0xbd6df53f	-0.058095213
98	0x3e2e5170	0.17023253
99	0xbd500c3b	-0.050792914
100	0x3cdf81ac	0.027283512
101	0x3e8ea7cb	0.2786239
102	0xbd811be5	-0.063041486
103	0x3def74a8	0.11692172
104	0xbe2a42a7	-0.16626988
105	0xbe2e6f1a	-0.1703457
106	0xbc47977e	-0.012182115
107	0xbe1f1438	-0.15535057
108	0x3de6bedf	0.112668745
109	0x3dc89beb	0.09795364
110	0x3dc7aa62	0.09749295
111	0xbe085e23	-0.1331716
112	0x3e1aaad0	0.15104222
113	0x3dfb9c63	0.12285688
114	0x3e1ba3a6	0.15199146
115	0xbda9c24f	-0.082890145
116	0x3e15f56a	0.146444
117	0x3d0125f6	0.031530343
118	0x3e1490ca	0.14508358
119	0x3d238096	0.03991755
120	0x3e1cf4c2	0.15327743
121	0x3e62e524	0.22157723
122	0x3ea70919	0.32624128
123	0xbdd05069	-0.10171587
124	0xbaa3d9d3	-0.001250083
125	0x3e592a56	0.21207556
126	0x3da4c82b	0.080459915
127	0xbd71c68a	-0.059027232
128	0x3d95d9cb	0.07316931
129	0x3e263eaf	0.1623485
130	0xbd9ab3f7	-0.07553857
131	0xbb0829b1	-0.0020776803
132	0xbe10db5c	-0.14146179
133	0xbbd92ff9	-0.0066280332
134	0xbe66f169	-0.22553028
135	0xbee818ef	-0.45331523
136	0x3e6722a3	0.22571807
137	0x3ea3f88f	0.32025573
138	0x3e66f218	0.22553289
139	0x3e139f45	0.14416225
140	0xbd1adb21	-0.037806634
141	0x3e209e4c	0.15685385
142	0xbca7bc2c	-0.02047547
143	0x3dc81ecc	0.09771499
144	0xbdd61e2d	-0.10454974
145	0x3e088f6f	0.13335966
146	0xbdb9dfcf	-0.09075891
147	0x3d226bf6	0.03965374
148	0x3d71d661	0.05904234
149	0x3e466353	0.19373827
150	0xbdebcb53	-0.115133904
151	0xbe814640	-0.2524891
152	0x3e59fa18	0.2128681
153	0xbcb5d77e	-0.022197481
154	0x3ebc1ac5	0.36739174
155	0x3d975f16	0.07391183
156	0x3dbf527a	0.09341903
157	0x3e089879	0.13339414
158	0x3e03edda	0.12883702
159	0x3de0eefe	0.10983084
160	0xbe599276	-0.21247277
161	0x3d622348	0.055209428
162	0x3eae40c6	0.34033793
163	0x3c655114	0.013996381
164	0xbe357e46	-0.1772395
165	0xbe03db07	-0.12876521
166	0xbe18815c	-0.14893097
167	0x3e7efd73	0.2490137
168	0x3dc9098b	0.09816273
169	0xbeaebbfc	-0.34127796
170	0x3dc55f8d	0.096373655
171	0xbce464a9	-0.02788003
172	0x3e8a47c5	0.2700788
173	0x3e4fbbd8	0.202865
174	0xbd8671d1	-0.065646775
175	0x3d8fa0b4	0.070130736
176	0xbd614ecb	-0.055006783
177	0xbdd2803c	-0.10278365
178	0xbe7168b5	-0.23575099
179	0x3e1cb12f	0.15301965
180	0xbcaba74a	-0.020953793
181	0x3ca7c604	0.020480163
182	0xbd60cb7f	-0.05488157
183	0xbe0a1d4d	-0.1348774
184	0x3e854ad9	0.26033667
185	0x3e044259	0.12915935
186	0x3d9e397d	0.07725809
187	0x3d7d3790	0.061820567
188	0x3ebdc3da	0.37063485
189	0x3ca59806	0.020214092
190	0xbe07b391	-0.13252093
191	0x3dac331d	0.084081866
192	0x3be84492	0.0070882523
193	0x3d213383	0.039355766
194	0x3d99b335	0.07504884
195	0xbdcb3b13	-0.09923377
196	0x3e58c890	0.21170259
197	0xbe19cc44	-0.15019327
198	0xbdfd55a4	-0.1236985
199	0x3e6b104c	0.22955436
200	0xbe623af5	-0.22092803
201	0xbe3c7086	-0.184023
202	0x3e2734aa	0.16328683
203	0xbdf57fbe	-0.119872555
204	0xbe27cefb	-0.1638755
205	0xbd8fa16f	-0.07013213
206	0xbd07acae	-0.033123665
207	0x3dd8c057	0.10583561
208	0xbe146e2e	-0.14495155
209	0xbcfd9a7c	-0.030957453
210	0xbdb92f2d	-0.09042201
211	0x3d1e998e	0.03872066
212	0x3d825521	0.06363893
213	0x3e061fcf	0.13098072
214	0xbd3be7b4	-0.045875266
215	0x3dad3f1d	0.084593035
216	0x3dabc426	0.08387022
217	0x3d2269ce	0.039651684
218	0x3e1f5829	0.15560974
219	0xbd23b54c	-0.03996782
220	0x3d09e4c7	0.033665445
221	0x3c1de5fb	0.009637351
222	0xbe4c1d2c	-0.19933003
223	0xbe7cc610	-0.2468493
224	0x3eb3e065	0.35132137
225	0x3ddff84a	0.10936029
226	0xbd73d9ef	-0.05953401
227	0xbe1620d6	-0.14660963
228	0xbe519232	-0.20465925
229	0xbbfa09fc	-0.0076305848
230	0x3d5471c1	0.051866297
231	0x3cdcb945	0.026943812
232	0xbe0cf490	-0.13765168
233	0x3dd998c8	0.10624844
234	0xbdddcc5f	-0.10829996
235	0x3df34d05	0.11879925
236	0xbe05cf70	-0.13067412
237	0xbe8b800e	-0.27246135
238	0xbd0bdf48	-0.034148484
239	0x3d515a7c	0.051111683
240	0x3e1f38d6	0.15549025
241	0x3b86edf1	0.0041177203
242	0x3e0c421a	0.1369709
243	0xbe7656e1	-0.24056579
244	0xbda3fa52	-0.08006729
245	0x3e15fa25	0.14646204
246	0x3e160668	0.14650881
247	0x3da6fadc	0.081533164
248	0xbd0e7f40	-0.034789324
249	0xbd97fe68	-0.07421571
250	0xbe65a76c	-0.22427148
251	0x3e864d83	0.26231012
252	0x3dfbf5e7	0.123027615
253	0x3e60a229	0.21936859
254	0xbe49ef00	-0.19720078
255	0xbdb428b9	-0.0879683

network_body.linear_encoder.seq_layers.2.bias f4 [128]
0	0x3c982166	0.018570613
1	0x3d0c9102	0.034317978
2	0x3cf5b233	0.029992199
3	0x3c2bcfa1	0.010486514
4	0xbc318a32	-0.010836171
5	0x3ce002ba	0.02734505
6	0x3c6d1a07	0.014471537
7	0xbcaeffb0	-0.021362156
8	0x3d0642ec	0.032778665
9	0x3c25256e	0.010079725
10	0x39d2daa3	0.00040217218
11	0x3c6de8c0	0.014520824
12	0x3b54e869	0.003248716
13	0x3cc92bb9	0.024556981
14	0x3c0385ce	0.008027507
15	0x3cf0a05a	0.029373337
16	0x3d64bdbc	0.055845007
17	0xbc0645b5	-0.00819533
18	0x3caf029e	0.021363553
19	0xbbf79e54	-0.007556716
20	0x3d05db0f	0.032679614
21	0x3bb7fba9	0.005614717
22	0xbcd8f4a4	-0.026483841
23	0x3cb3d93c	0.021954171
24	0x3b524dbc	0.003208979
25	0x3d06b547	0.032887723
26	0xbcef7de9	-0.029234843
27	0xbcaa8201	-0.020813944
28	0xbb880b5c	-0.004151745
29	0xbd1b4193	-0.037904333
30	0x3ab95940	0.0014140978
31	0x3d22d7a9	0.03975645
32	0x3d2a5c7d	0.04159211
33	0x3bd8af41	0.006612689
34	0x3c99476b	0.018710813
35	0x3cd924a6	0.026506733
36	0x3d53fe68	0.051756293
37	0x3bef86e0	0.0073097795
38	0x3d22ed31	0.039776985
39	0x3cb2d62e	0.021830644
40	0xbc974390	-0.018464833
41	0x3cca19f5	0.02467058
42	0x3d4de978	0.05027148
43	0x3ceab39a	0.028650094
44	0x3c3d6e95	0.011562009
45	0xbc2a40fa	-0.010391468
46	0x3c22da17	0.009939692
47	0xbc3e57da	-0.011617625
48	0xbca2568a	-0.019816656
49	0x3c242474	0.010018457
50	0x3d3ff8ac	0.04686801
51	0x3beef767	0.0072926763
52	0x3c944449	0.018098967
53	0x3cc24f32	0.023719404
54	0x3d26c0ad	0.040711094
55	0x3c289d2b	0.010291378
56	0xbc175c36	-0.009238293
57	0x3ce4d00b	0.027931234
58	0x3d0cbec2	0.03436161
59	0x3c609521	0.01370743
60	0x3d015740	0.03157735
61	0x3d0135ec	0.031545565
62	0x3c7c252b	0.015389721
63	0x3c33da9b	0.010977413
64	0x3c06a31b	0.008217598
65	0x3b1066a3	0.0022033833
66	0x3c3ad29d	0.011402753
67	0x3c6cd574	0.014455188
68	0xbc92c9ea	-0.017918546
69	0xbc8c5eb8	-0.01713501
70	0x3c471998	0.012152098
71	0x3ccda3a4	0.025102444
72	0x3d0338c5	0.03203656
73	0x3cca37ec	0.024684869
74	0x3cf616ac	0.030040108
75	0xbcd1dfc2	-0.025619391
76	0xbbf449c6	-0.0074550835
77	0x3d8578b8	0.06517166
78	0xbbf6fec7	-0.007537696
79	0x3cf15755	0.029460588
80	0x3be181e3	0.006881939
81	0xbae2212f	-0.0017252321
82	0xbb04241c	-0.0020163124
83	0x3c6a0da8	0.0142854825
84	0x3c712010	0.014717117
85	0x3c39a6d2	0.011331277
86	0xbc9a5632	-0.01883993
87	0x3ca83e93	0.02053765
88	0xbc44e740	-0.012018025
89	0x3d82fb53	0.063955925
90	0x3bc5cd98	0.0060364716
91	0xbcc78287	-0.024354232
92	0xbb6fa9bc	-0.0036569675
93	0xbc25d0da	-0.010120595
94	0xbd10a369	-0.03531209
95	0xbc9a9ab8	-0.018872604
96	0xbbe47886	-0.0069723753
97	0x3cc27b33	0.023740387
98	0x3d3db65a	0.046316482
99	0xb9ddd99a	-0.0004231453
100	0x3d2fb0ed	0.04289334
101	0x3b6b319c	0.0035887724
102	0xbc92cbde	-0.017919477
103	0x3d173dd1	0.036924187
104	0x3d016094	0.031586245
105	0xbc6a366c	-0.014295202
106	0x3cd16ef7	0.025565607
107	0x3c4543d3	0.012040096
108	0x3d18f0a6	0.037338875
109	0x3cef1ed7	0.02918951
110	0xbc91a988	-0.017781034
111	0x3c114d92	0.008868592
112	0x3cabce86	0.020972501
113	0x3c94b2f9	0.018151747
114	0x3d57c152	0.0526746
115	0xbbb49036	-0.0055103553
116	0x3ccafbef	0.024778334
117	0x3d0f7dae	0.035031967
118	0x3d2f0898	0.042732805
119	0x3cb7d898	0.022442147
120	0x3bb1f36b	0.005430629
121	0x3d2443d5	0.040103752
122	0xbc885dbe	-0.016646262
123	0x3bda35d8	0.0066592507
124	0x3c239a6a	0.009985546
125	0xbbecb3a9	-0.0072235656
126	0xbc9f60f1	-0.019455405
127	0x3d0c5ed2	0.034270115

network_body.linear_encoder.seq_layers.2.weight f4 [128, 128]
0	0x3e3076a6	0.17232761
1	0x3d541db0	0.051786125
2	0x3c8b29e2	0.016987745
3	0x3d6ef61b	0.058340173
4	0xbd1df4b5	-0.03856345
5	0x3e264198	0.1623596
6	0xbd1b3ce8	-0.03789988
7	0xbdae6002	-0.08514406
8	0x3d1b3761	0.03789461
9	0xbd5493f4	-0.05189891
10	0xbd8ba2f6	-0.06818192
11	0x3e012161	0.1261039
12	0x3dd206c8	0.102552
13	0xbd4f9e5a	-0.050688125
14	0xbe4db8d6	-0.2009004
15	0x3b62e277	0.0034619847
16	0xbc84e0cf	-0.016220478
17	0x3d4828c5	0.048867006
18	0xbd89df71	-0.06732071
19	0x3ddf60c7	0.10907131
20	0xbde32f6f	-0.110930316
21	0xbd3b1809	-0.04567722
22	0x3af0fc6c	0.0018385774
23	0x3da18867	0.07887345
24	0xbe9185e3	-0.2842246
25	0x3ddf5999	0.10905761
26	0xbdf23f8b	-0.11828526
27	0xbdff5324	-0.1246703
28	0x3dd957b2	0.1061243
29	0xbb80ca79	-0.0039303866
30	0x3dec2ee8	0.11532384
31	0xbe154903	-0.14578633
32	0xbe2923ae	-0.16517517
33	0x3c191107	0.009342439
34	0xbd6f86a9	-0.05847803
35	0x3e7ec60f	0.24880241
36	0xbe4032df	-0.18769406
37	0x3d06a520	0.03287232
38	0x3dba60cf	0.09100496
39	0xbe16eee5	-0.14739569
40	0x3dc5cf2c	0.096586555
41	0x3e4b7805	0.19870003
42	0xbe07b3fa	-0.1325225
43	0xbdf53e57	-0.11974781
44	0x3cd5e850	0.026111752
45	0xbdd4f72b	-0.10398706
46	0x3c95426a	0.018220145
47	0xbd89e989	-0.067339964
48	0x3d7ab09c	0.061203584
49	0xbb6dfe3f	-0.0036314873
50	0xbe02941e	-0.12751815
51	0xbd4c3d63	-0.04986323
52	0x3e0f6ce3	0.1400638
53	0x3caac88b	0.02084758
54	0x3d69ef78	0.05711314
55	0x3df1464a	0.11780985
56	0xbd0cf738	-0.034415454
57	0x3b847d3e	0.0040432503
58	0xbd98db60	-0.074637175
59	0xbcea6da9	-0.028616743
60	0x3e0bb083	0.13641553
61	0x3e517e57	0.20458351
62	0x3dfa6db1	0.12227953
63	0xbda6a016	-0.08136003
64	0x3d6f8539	0.05847666
65	0x3cad5f8c	0.021163724
66	0xbce6cbb7	-0.02817331
67	0xbd98a26c	-0.074528545
68	0x3d8c37a7	0.06846552
69	0x3d2a0b01	0.0415144
70	0x3d94fd96	0.0727493
71	0x3d1633d8	0.036670536
72	0x3d64b2d1	0.055834595
73	0x3d1795a7	0.037007954
74	0xbd5b347d	-0.053516854
75	0xbdb06730	-0.086134315
76	0xbd651382	-0.055926807
77	0xbaaee2d5	-0.0013342748
78	0x3cbd6d5d	0.023123438
79	0xbd8b0a4a	-0.06789072
80	0xbcb7e11b	-0.022446206
81	0x3d3862eb	0.04501621
82	0x3e22bfff	0.15893553
83	0x3e5c1197	0.21491085
84	0x3dbf90be	0.09353779
85	0x3dc248b7	0.094865255
86	0xbe823b85	-0.25436035
87	0xbc3b5ec4	-0.011436168
88	0x3cf9dcf1	0.03050086
89	0xbcd9af01	-0.026572706
90	0x3d2d9558	0.042378753
91	0xbe184a02	-0.14871982
92	0xbd0def11	-0.03465182
93	0xbe3135a0	-0.17305613
94	0xbe242f41	-0.16033651
95	0x3df8073a	0.12110753
96	0x3d2f8071	0.0428471
97	0x3db6598c	0.089037985
98	0xbd9f2c65	-0.077721395
99	0xbdb0ab07	-0.08626371
100	0x3cf01550	0.029307038
101	0x3c4929ac	0.012278002
102	0xbdd1b123	-0.10238864
103	0xbca2ef34	-0.019889452
104	0x3e12dcdb	0.14342062
105	0x3c9acb8b	0.018895885
106	0x3e1c9b17	0.15293537
107	0xbe0ed6ab	-0.13949077
108	0xbd36b8a8	-0.044609696
109	0x3e057349	0.13032259
110	0xbda408a7	-0.08009463
111	0xbc09a9ef	-0.008402332
112	0xbded26fb	-0.115797006
113	0x3dbdb160	0.09262347
114	0x3d190a8d	0.037363578
115	0xbd67ee80	-0.056623936
116	0xbdb1a2d8	-0.08673638
117	0xbdc97c0f	-0.098381154
118	0x3dd1baab	0.10240682
119	0x3e016a60	0.12638235
120	0x3dd39f44	0.10333112
121	0x3db351d3	0.08755841
122	0x3dd43e79	0.10363478
123	0xbe16c402	-0.14723209
124	0xbe15cb9a	-0.14628449
125	0x3daeabff	0.085288994
126	0x3be9c6db	0.007134301
127	0x3d8ee53f	0.06977319
128	0x3e33d64d	0.17562218
129	0x3df04ef5	0.1173381
130	0xbcd1d9a6	-0.025616478
131	0x3db9073d	0.09034584
132	0xbdcf89df	-0.10133719
133	0xbd7a471f	-0.061102983
134	0xbdd80cc5	-0.105493106
135	0x3c9865b7	0.018603189
136	0x3e6a0555	0.22853597
137	0xbe75a609	-0.23989119
138	0xbd7a349a	-0.06108532
139	0xbbb3b5af	-0.005484305
140	0x3dcc035a	0.09961577
141	0xbc59e754	-0.013299782
142	0xbdd2c424	-0.10291317
143	0xbe162892	-0.14663914
144	0xbd9c7520	-0.07639527
145	0xbd8ce395	-0.06879345
146	0xbda5e83a	-0.08100934
147	0xbd9757aa	-0.073897675
148	0xbd9c595c	-0.076342314
149	0xbe99539d	-0.29946604
150	0x3e1abad5	0.15110333
151	0xbda92f50	-0.08260977
152	0xbe0f506f	-0.13995527
153	0x3b2d150e	0.0026410255
154	0x3d255c6a	0.040371336
155	0xbda1d4df	-0.0790193
156	0xbc0a5173	-0.008442271
157	0x3db73879	0.08946318
158	0x3d2530db	0.040329795
159	0x3b36e542	0.0027907644
160	0xbd8c2621	-0.0684321
161	0xbd36fed6	-0.044676624
162	0x3d9013b0	0.07035005
163	0x3e59caf1	0.21268822
164	0xbd1a0a46	-0.037607454
165	0x3dbadb32	0.091238394
166	0xbdb2fb62	-0.08739354
167	0x3d91150d	0.07084093
168	0x3e25fb56	0.16209158
169	0x3bfe47fb	0.0077600456
170	0x3d359c05	0.044338245
171	0xbd1e542b	-0.038654488
172	0x3cf6ef0b	0.030143281
173	0xba27d523	-0.0006402304
174	0x3df1f89a	0.11814995
175	0x3c8a3a04	0.016873367
176	0x3b050712	0.0020298404
177	0xbdf922d2	-0.121648446
178	0x3d31f377	0.043445077
179	0x3e696d84	0.22795683
180	0xbe04932d	-0.12946768
181	0xbd27ef21	-0.040999535
182	0xbe092e7b	-0.13396637
183	0xbe067b53	-0.13132982
184	0x3d548e27	0.05189338
185	0xbe17daad	-0.14829512
186	0xbe4c61db	-0.19959204
187	0xbdc26234	-0.09491387
188	0xbc14b3ec	-0.0090761
189	0x3df3be70	0.119015574
190	0x3d9c9743	0.076460384
191	0xbe2a65ab	-0.16640346
192	0xbc17720a	-0.009243498
193	0xbe2b92a6	-0.1675516
194	0x3c0c0d93	0.008548158
195	0xbe1356f1	-0.14388634
196	0x3dc80dc2	0.09768249
197	0xbd8d9862	-0.0691383
198	0xbd8845ea	-0.0665396
199	0x3c96afcd	0.018394375
200	0xbc114323	-0.008866104
201	0x3e213447	0.15742598
202	0x3d948e43	0.07253697
203	0x3cef34f6	0.029200058
204	0xbe031731	-0.12801816
205	0x3d86f2c7	0.06589275
206	0xbc672831	-0.0141087035
207	0xbe5de367	-0.21668778
208	0xbe0b28c1	-0.13589765
209	0xbdaacd60	-0.083399534
210	0xbd75e4f9	-0.06003282
211	0x3db45708	0.088056624
212	0x3cc3e4ea	0.023912866
213	0xbe319b06	-0.17344293
214	0xbd5f420d	-0.05450635
215	0x3c6c0877	0.014406315
216	0xbe310705	-0.17287834
217	0xbc8d06c4	-0.01721514
218	0x3c8de29c	0.01731997
219	0x3bc9f7dd	0.006163581
220	0xbe01eb25	-0.12687357
221	0xbc382ed7	-0.011241636
222	0x3d5d81a5	0.054078717
223	0x3dc2d503	0.09513285
224	0x3dc3884b	0.0954748
225	0xbbb0d2f0	-0.0053962395
226	0xbdb2cbfb	-0.087303124
227	0x3d8c1237	0.06839412
228	0x3dbc44de	0.09192823
229	0xbe0109f8	-0.12601459
230	0xbd9b1b91	-0.07573617
231	0x3e95f593	0.2928892
232	0x3d9436de	0.072370276
233	0x3d2649e3	0.040597808
234	0x3e3c5e5d	0.18395372
235	0xbe7c5b15	-0.2464412
236	0xbceef220	-0.029168189
237	0x3cdced23	0.026968544
238	0xbe1e5365	-0.154615
239	0xbd220d83	-0.039563667
240	0x3d8f712c	0.07004008
241	0x3ca246e6	0.019809198
242	0xbd70dd9f	-0.058805104
243	0xbd399bbf	-0.045314547
244	0xbc44f500	-0.012021303
245	0x3d94070a	0.07227905
246	0xbd6b91ad	-0.057511974
247	0x3db99a04	0.09062579
248	0xbde707df	-0.11280798
249	0xbe621d55	-0.22081502
250	0x3c3a4990	0.011370078
251	0x3db94abc	0.090474576
252	0xbe68312f	-0.22675012
253	0x3d3f5681	0.046713356
254	0x3d8894b7	0.0666899
255	0x3e2d7ec5	0.1694289

network_body.vector_processors.0.normalizer.running_mean f4 [45]
0	0x00000000	0.0
1	0x3f7ffeab	0.9999797
2	0x3f7ffeab	0.9999797
3	0x00000000	0.0
4	0x3f7ffeab	0.9999797
5	0x3f7ffeab	0.9999797
6	0x00000000	0.0
7	0x3f7ffeab	0.9999797
8	0x3f7ffeab	0.9999797
9	0x00000000	0.0
10	0x3f7ffeab	0.9999797
11	0x3f7ffeab	0.9999797
12	0x00000000	0.0
13	0x3f7ffeab	0.9999797
14	0x3f7ffeab	0.9999797
15	0x00000000	0.0
16	0x3f7ffeab	0.9999797
17	0x3f7ffeab	0.9999797
18	0x00000000	0.0
19	0x3f7ffeab	0.9999797
20	0x3f7ffeab	0.9999797
21	0x00000000	0.0
22	0x3f7ffeab	0.9999797
23	0x3f7ffeab	0.9999797
24	0x00000000	0.0
25	0x3f7ffeab	0.9999797
26	0x3f7ffeab	0.9999797
27	0x00000000	0.0
28	0x3f7ffeab	0.9999797
29	0x3f7ffeab	0.9999797
30	0x00000000	0.0
31	0x3f7ffeab	0.9999797
32	0x3f7ffeab	0.9999797
33	0x00000000	0.0
34	0x3f7ffeab	0.9999797
35	0x3f7ffeab	0.9999797
36	0x00000000	0.0
37	0x3f7ffeab	0.9999797
38	0x3f7ffeab	0.9999797
39	0x3f53884e	0.8262986
40	0x3f75af22	0.95970356
41	0x4049b9f2	3.1519742
42	0x3f358158	0.7090049
43	0x40b56edb	5.669782
44	0x400f3be2	2.23803
